models/fmnist_supervised-model.pt (torch, 206480 bytes, 4 tensors)

model.0.weight f4 [32, 784]
000000 fb 36 a9 bf 32 53 91 3f c8 fc 7b bf 58 3e 6b 40
       -1.3219904 1.1353514 -0.9843259 3.6756802
000010 3a 98 d5 3f 1e 2a e1 be bf e7 9b bf 9e 52 0d bf
       1.6687081 -0.43977445 -1.2180098 -0.5520419
000020 95 29 51 bf ce 96 6a bf 8e 8a a2 bd 57 eb 02 3e
       -0.81704074 -0.9163636 -0.079365835 0.12785088
000030 45 83 ae 3c 8d 6c cb 3d aa c2 b7 bd cb 47 98 bd
       0.021302829 0.09932814 -0.08972676 -0.074355684
000040 cf e2 7d 3e 44 18 a2 3e f0 a6 8b be a0 e9 91 be
       0.24793552 0.31659138 -0.272758 -0.28498554
000050 4f 30 9d 3d 7f ba 5c 3e 8e af c7 3d f9 ed ed be
       0.0767523 0.21555518 0.09750281 -0.4647062
000060 e1 6e c1 be a9 21 34 be f3 1d 2d bd fc 08 a6 3b
       -0.37779906 -0.17590965 -0.04226489 0.005066989
000070 4d f0 6f 3e 8f f7 1c be 2e 61 bf 3d c9 f1 37 3e
       0.23431511 -0.15328811 0.093447074 0.17963327
000080 53 5d 23 3d c8 4b c1 3e de 30 ce 3e 9b 31 1e bd
       0.039883923 0.3775313 0.40271658 -0.038621526
000090 6f 9e 1b 3c e0 d1 f6 3d f1 71 80 3d 7c fc ab 3e
       0.009498223 0.12051749 0.062717326 0.33591068
0000a0 b7 01 bb bc 70 6d 82 3e cb d5 d4 3d ee f9 ca bd
       -0.022827966 0.2547412 0.1039234 -0.099109516
0000b0 df 0c 8e be 30 46 db bd 98 01 bc 3d 43 a7 58 3d
       -0.27744195 -0.107067466 0.091799915 0.05289389
0000c0 16 bf 5e bd bb 0e 35 3e b0 49 7e 3e 4a 79 0f be
       -0.054381453 0.176814 0.24832797 -0.14011112
0000d0 f3 3b b2 3e 1a 82 1d be fe 65 1c be c0 b7 bb bd
       0.34811363 -0.15381661 -0.15273282 -0.09165907
0000e0 10 d5 12 3e ff 50 fd 3d 9e db bb be 19 ef 90 bd
       0.1433909 0.123689644 -0.36690992 -0.07076854
0000f0 63 5c 18 bd 2c 7e 71 bd bf 04 60 bd af 30 9a bd
       -0.03719748 -0.058958218 -0.054692026 -0.07528817
000100 45 de 12 3d 1d c8 ee 3d fb d6 f9 bd 53 93 ad bd
       0.035856504 0.11659262 -0.121992074 -0.084753655
000110 f3 0f a2 bd 2a 00 c3 bd f5 7e 61 bd 4b 63 6c bd
       -0.07913198 -0.09521516 -0.055052716 -0.05771188
000120 a2 bf 23 3d f4 c7 ab 3d 55 00 f5 bc bf 20 4b 3c
       0.039977677 0.083877474 -0.029907385 0.012397944
000130 b4 d7 8e ba db bf fa 3d eb ef 99 bc 0c dd 8d 3d
       -0.0010898025 0.12243625 -0.01879116 0.06926927
000140 0c ee c4 bc 70 e5 42 3d 52 e4 1a bd 43 7e 3e bd
       -0.02403929 0.04758209 -0.0378154 -0.04650713
000150 56 bc 0c bd 50 d7 d7 bd 56 db 58 bd 6c fb 10 be
       -0.0343593 -0.105391145 -0.05294355 -0.1415841
000160 f6 a3 af bd 06 27 03 3e 6d fa 8b 3d 22 c8 85 bd
       -0.08576195 0.12807855 0.06834874 -0.06532313
000170 d5 06 77 be 21 33 c6 bb 31 f8 29 3e c2 52 00 3e
       -0.241237 -0.0060485755 0.16598584 0.1253157
000180 b0 f0 de bd 7c 42 03 3e 94 4b ea bc 67 3d 8f bc
       -0.10885751 0.1281833 -0.028600492 -0.017485334
000190 da 16 fc 3b 39 b8 d0 3b 82 21 1a be 52 82 b8 bd
       0.007693154 0.0063696173 -0.15051845 -0.090092316
0001a0 35 59 37 be 1a 69 f7 bc 3b 2f 11 be 5a e8 7d be
       -0.17905124 -0.030201484 -0.14178173 -0.24795666
0001b0 55 9e c7 bd 7b 2d 7f be 0a 2b d1 3d 95 8c 1f be
       -0.09746996 -0.24919693 0.10213287 -0.15580972
0001c0 05 65 1a bd 24 ca e7 3d 07 01 35 3e 3f 85 2b 3e
       -0.037693996 0.11317852 0.17676173 0.16750048
0001d0 96 35 3b bd cc a4 1d be 74 69 0a bc 3c ec 53 be
       -0.0457054 -0.15394896 -0.008447994 -0.20695585
0001e0 88 57 b1 3d d6 73 74 be 92 9a 01 3e 85 89 73 3e
       0.086592734 -0.23872313 0.1265662 0.23782928
0001f0 ce b6 29 3e ed cc 18 be 93 9a 31 3e d2 99 f8 bc
       0.1657364 -0.14921923 0.17344122 -0.030346785
000200 8a 6c d8 bd f4 1b 22 3e 0d 9a e2 bd 27 35 0a bd
       -0.10567577 0.15830976 -0.11064539 -0.033742096
000210 87 ab 90 be 20 e1 9b bd 30 14 cb bd 55 26 8b be
       -0.28255865 -0.076112986 -0.0991596 -0.27177683
000220 f8 4a 88 3d 4f d1 59 3c ec 94 11 bd b0 90 5e 3e
       0.06654924 0.013294532 -0.035542414 0.21734881
000230 df de 8c 3d 40 b4 89 3d 1a 67 a1 be ed 62 9a be
       0.06878447 0.06723833 -0.31523973 -0.301536
000240 ca 6d 5e bd 74 a1 c6 bd c3 53 b9 bd 82 4a ee 3c
       -0.05430392 -0.096987635 -0.090491794 0.029088262
000250 20 3b 60 bc 07 73 32 3c c4 f7 94 3d bb f7 9e bd
       -0.0136859715 0.0108916825 0.0727382 -0.077620946
000260 fd b1 1f bd 16 a9 2a 3d cc 91 96 bd d9 a2 ea 3d
       -0.038988102 0.04166516 -0.07352027 0.11456842
000270 77 30 12 3e ca e2 db bd 20 08 31 be 61 0f 5f bc
       0.142763 -0.10736616 -0.17288256 -0.013614506
000280 10 41 25 3a 46 f5 48 3d 37 9e 26 3c 9a 90 f8 bd
       0.00063039456 0.049062036 0.010169557 -0.121369556
000290 31 bb 69 be 17 25 94 3d 2c 9b 64 be 6b f5 0d 3e
       -0.22825314 0.07233637 -0.22324818 0.13863151
0002a0 8a ac a4 be 87 93 40 be c2 b4 84 3e a1 77 8e 3d
       -0.32162887 -0.18806277 0.25919157 0.06956411
0002b0 c7 67 ad bd 1c 3e e0 be 81 53 19 bd e9 15 06 be
       -0.084670596 -0.43797386 -0.03743315 -0.13094296
0002c0 fa 75 c5 3c 03 23 9f 3e 86 39 4c 3e 4f 0d 40 3e
       0.024104107 0.310814 0.19943818 0.18755077
0002d0 30 27 9b bc 57 17 17 be f1 94 41 be b6 af e5 bd
       -0.018939584 -0.14754997 -0.18904473 -0.11215155
0002e0 35 d3 16 3e fc 15 1a be fa 85 a4 3d e9 37 67 3d
       0.14729007 -0.15047449 0.080333665 0.056449804
0002f0 0a 2d f1 3c 8a a4 6a bd 85 b9 da bd 7a 51 54 be
       0.029440422 -0.057285823 -0.10679916 -0.20734206
000300 82 df 36 be 52 ad 0a 3e 45 d0 3a be 0c 97 a4 bc
       -0.17858699 0.13542679 -0.18243511 -0.020091556
000310 12 1c bd bd 21 f8 5d be 0d 05 32 bd 34 19 88 be
       -0.092338696 -0.21676685 -0.043461848 -0.26581728
000320 9c bf 19 be 88 c7 a4 be 9b 92 33 bd 6d 15 23 bd
       -0.150145 -0.3218348 -0.043840986 -0.039815355
000330 fd 10 24 bd e4 43 5d 3e 90 e9 4f 3e a6 57 d9 3d
       -0.040055264 0.2160793 0.20303941 0.10612421
000340 72 57 8b 3d 1b a8 de bb 2d 38 d1 3c fc b8 db bd
       0.06803788 -0.006794942 0.025539482 -0.10728642
000350 ee 8e 8c 3c d1 81 3a 3e cf 7d b0 3d d5 5e d2 bc
       0.017157998 0.18213584 0.08617746 -0.025679985
000360 1a 63 35 3e 42 16 27 be 05 94 a5 bd 76 7b a8 be
       0.17713585 -0.16317084 -0.08084873 -0.32906693
000370 28 da c0 be 83 38 99 bd ce aa 84 be 6f f7 be 3d
       -0.3766644 -0.07481482 -0.25911564 0.09324538
000380 03 45 63 be 31 af 5d bc 29 2e 27 3e e2 52 21 3e
       -0.22194295 -0.013530538 0.16326202 0.15754274
000390 f3 d0 35 3e d7 85 00 bd 21 1f 86 bd 94 11 88 bd
       0.17755489 -0.03137764 -0.06548906 -0.06643978
0003a0 cc 17 4a bd 83 6b 0d 3b b5 5c 20 be 1d 26 63 3e
       -0.0493391 0.0021578975 -0.15660365 0.22182508
0003b0 1f 8f 9b 3e 71 48 fc bd fc d0 90 bd 42 ed f8 3d
       0.3038263 -0.123185046 -0.070711106 0.12154628
0003c0 c1 8f b0 bd 9a 25 8d bd 52 04 2a 3c d3 26 9b bd
       -0.08621169 -0.068919376 0.010377007 -0.075757645
0003d0 db a7 89 be ec 78 ab 3c 34 25 8f bd 7e 29 88 be
       -0.26885876 0.020931683 -0.06989518 -0.26594156
0003e0 3a 31 66 be 33 5a 6a bd b6 da 17 be e2 a3 15 3d
       -0.22479716 -0.057214927 -0.14829525 0.036533244
0003f0 dd 47 6a bd 79 2d c5 bd 24 54 b1 bb 39 b9 8e 3b
       -0.05719744 -0.09627814 -0.0054116417 0.0043555764

model.0.bias f4 [32]
000000 59 48 e8 3e 9c e6 7c 3f d6 50 84 3e 40 f1 63 3f
       0.45367697 0.9878938 0.25842923 0.89039993
000010 8e 94 49 3e e8 ee d3 3d 60 69 67 3e 55 35 0a 3e
       0.19685575 0.10348302 0.22598791 0.13496907
000020 c2 d2 3a 3e 63 bb 94 3e 9b 36 8a 3f c4 93 a4 bd
       0.1824446 0.29049215 1.0797914 -0.080359966
000030 d3 60 18 be 11 84 37 3e e3 15 59 3e 62 71 c6 3e
       -0.14880686 0.17921473 0.21199755 0.3875838
000040 b4 4b f2 3e 3c 36 a6 bd a4 0b dc 3e 58 1f 3b 3e
       0.47323382 -0.08115813 0.4297763 0.18273675
000050 93 00 15 3f 45 9e 80 bd e8 d1 c6 3e 82 cd 16 bd
       0.58204 -0.062801875 0.3883202 -0.03681708
000060 53 84 8a bc ee 62 41 bf 12 77 4f 3e 01 07 e8 3f
       -0.0169088 -0.7554158 0.20260265 1.8127137
000070 f2 5c f3 be 01 26 21 3f 06 b3 50 3f 28 12 90 bd
       -0.4753185 0.62948614 0.8152317 -0.07034713

linear_classifier.0.weight f4 [784, 32]
000000 a6 7c f0 bd 54 00 ee ba a5 39 0e bc 86 de 86 3d
       -0.11742525 -0.0018158057 -0.008680736 0.06585412
000010 55 c3 49 bd c7 09 6f ba 90 f3 c2 bb 7d fb 00 ba
       -0.04925855 -0.00091185834 -0.005949445 -0.0004920287
000020 57 83 a9 b9 85 50 17 be 0b ae b1 bd f4 c0 78 b8
       -0.00032332048 -0.1477681 -0.08675774 -5.930751e-05
000030 f8 e5 d5 bd b8 89 4e be 24 51 65 bb 12 18 e4 bd
       -0.10444254 -0.20169723 -0.003499099 -0.111374035
000040 85 a4 bf bc ea 73 89 b8 7f 6a 5b bb 19 0f 08 ba
       -0.023393879 -6.55426e-05 -0.0033480225 -0.0005190238
000050 bf 0c db bd c7 51 25 b8 3c ce b3 ba f4 77 fb b7
       -0.106957905 -3.9415227e-05 -0.0013718079 -2.997739e-05
000060 c4 38 87 ba 95 4b dc bd 68 39 b7 bc dc 67 09 bc
       -0.00103166 -0.10756604 -0.02236624 -0.008386578
000070 b4 40 90 bd ec 60 63 bd d3 42 f8 bb e8 65 00 b9
       -0.07043591 -0.055512354 -0.0075763254 -0.00012244994
000080 99 b0 3c bd 31 04 41 bb 76 2f 14 bc 71 64 16 be
       -0.046066854 -0.002945196 -0.009044519 -0.14686753
000090 6e 0e 35 bd c0 e9 61 ba 19 c3 3c bb 0b 52 0c ba
       -0.044203214 -0.00086179003 -0.002880281 -0.00053528015
0000a0 70 3b 03 ba 09 a8 17 be 7d 76 b2 bd 10 a8 95 b8
       -0.00050061103 -0.14810194 -0.08714006 -7.136178e-05
0000b0 27 c5 fd 3d 90 f2 4d be ce 41 44 ba 45 e0 ef bd
       0.123911195 -0.20112062 -0.00074866123 -0.11712698
0000c0 2c d4 cb bc e5 0c 89 b8 0a fd 2c bb 8e bb 06 ba
       -0.024881445 -6.535071e-05 -0.002639594 -0.0005139642
0000d0 db 74 d2 bd 44 3e 73 b8 f2 04 bf ba cc 3c 29 b8
       -0.10276195 -5.7993704e-05 -0.0014573617 -4.034936e-05
0000e0 cc 60 c3 b9 2b c4 dd bd 78 2c ba bc 0e 4c 2b bc
       -0.00037265418 -0.10828432 -0.022726282 -0.010455145
0000f0 12 45 8c bd c4 7f 79 bd 55 13 de bb 13 18 0f b9
       -0.068491116 -0.060912862 -0.006777207 -0.00013646511
000100 3f 5d eb bd d0 80 82 bb fc 01 0e bc 8a 81 1d be
       -0.11492395 -0.003982641 -0.008667465 -0.15381446
000110 79 3a 5e bd 03 03 5e ba 8a 77 c0 bb 04 46 ec b9
       -0.054254983 -0.0008469077 -0.005873625 -0.00045065593
000120 de 9c c0 b9 19 6d 17 be 81 34 b2 bd f3 6e 6f b8
       -0.0003673797 -0.14787711 -0.087014206 -5.708537e-05
000130 7d c1 d5 bd ff 13 d5 bd fb 6a 50 bb c2 51 dc bd
       -0.104372956 -0.104042046 -0.0031802047 -0.107577816
000140 54 0c c5 bc 37 58 83 b8 9b aa 1d bb 0f f2 d1 b9
       -0.02405373 -6.262998e-05 -0.0024057988 -0.00040043934
000150 fe 05 dc bd fc a8 43 b8 43 81 53 ba 9d ed 8f b8
       -0.107433304 -4.6649002e-05 -0.0008068273 -6.86303e-05
000160 19 37 a2 ba da 00 de bd 5a c6 d2 bc a6 3e ed bb
       -0.001237604 -0.10840006 -0.025729347 -0.0072401343
000170 78 a2 cb 3d 0a 42 a0 bc bb 67 ff bb ab 80 f9 b8
       0.09943098 -0.01956274 -0.007794348 -0.000118972115
000180 c7 0d 83 3d 15 05 4f bb db 47 14 bc da 4f da bd
       0.06399112 -0.0031588722 -0.009050335 -0.10659762
000190 2c 0e 5d bd cc 20 60 ba ba 64 3b bb ad 23 0c ba
       -0.053968593 -0.0008549809 -0.0028593973 -0.0005345892
0001a0 27 f3 fe b9 a6 1a 1e be d3 3b b0 bd dd 62 56 b8
       -0.00048627818 -0.15439853 -0.086051606 -5.111365e-05
0001b0 7f 06 e9 bd 52 c1 4d be eb 83 71 bb 16 38 90 3c
       -0.11378192 -0.20093277 -0.003685231 0.017604869
0001c0 d7 d9 93 bc 96 62 5f b8 86 07 4b bb 04 fe 07 ba
       -0.01804821 -5.325916e-05 -0.0030979826 -0.00051876926
0001d0 4e ce d9 bd 78 07 3b b8 f7 10 be ba 0a 69 7a b8
       -0.106350526 -4.459123e-05 -0.0014500906 -5.970247e-05
0001e0 e7 e5 a7 ba af 2d ea bd d9 f1 bd bc 0f 8f 10 bc
       -0.0012809605 -0.11434495 -0.023186611 -0.00882317
0001f0 44 93 8e bd 39 66 7f bd 5c 77 03 bc 69 8e f6 b8
       -0.069616824 -0.062353346 -0.008024063 -0.0001175672
000200 46 b6 af bd 90 60 77 bb 8e c0 0d bc 15 55 23 be
       -0.08579688 -0.0037746765 -0.008651866 -0.15950425
000210 f7 07 55 bd 47 7f 61 ba 71 71 c3 bb d2 bb e5 b9
       -0.05200955 -0.00086020346 -0.005964451 -0.0004381822
000220 f8 5a e4 b9 d6 ff 16 be 2f b7 b0 bd 22 7f 8a b8
       -0.00043555326 -0.14746031 -0.086286895 -6.604033e-05
000230 85 77 d8 bd ba a9 8c bc f4 ac 17 bb 7e 0b de bd
       -0.105696715 -0.017170776 -0.002314386 -0.10842036
000240 57 5e ce bc f6 44 8d b8 08 2a 1f bb 68 bb e2 b9
       -0.02519147 -6.736249e-05 -0.0024286527 -0.00043245708
000250 9e 62 db bd e8 a4 61 b8 9a b9 95 ba f3 38 a3 b8
       -0.10712169 -5.379776e-05 -0.0011423111 -7.783053e-05
000260 19 0e b1 ba 14 9e dc bd ec 29 62 bc 78 d8 d1 bb
       -0.001350823 -0.107723385 -0.01380394 -0.006403979
000270 ae 63 9f bd c7 ef 84 bd c7 3a 05 bc c2 6b 05 b9
       -0.07782684 -0.064910464 -0.008131689 -0.00012724011
000280 78 0b e6 bd 4d 72 62 bb 12 8d f2 3b 62 ca 15 be
       -0.11232656 -0.0034552992 0.007402071 -0.14627984
000290 c5 de 15 3c 13 b5 e2 b9 58 4b 72 39 15 b8 d0 b9
       0.009147351 -0.0004324099 0.00023106986 -0.00039810003
0002a0 b6 84 c7 b9 52 91 9e bd 13 69 d4 3d eb eb 8f b8
       -0.00038055115 -0.077425614 0.10371604 -6.8627145e-05
0002b0 5b 9e d8 bd 73 46 4c be a2 9b 76 bb a5 02 e3 bd
       -0.10577079 -0.19948749 -0.0037629385 -0.11084489
0002c0 2d dc 37 bc 60 18 4c b8 92 b2 56 bb 8c 20 80 b9
       -0.011221928 -4.866009e-05 -0.0032760245 -0.00024438312
0002d0 a6 d1 e0 bd 23 d2 4b b8 c9 23 2f ba 1a 9a 50 b8
       -0.10977487 -4.8594677e-05 -0.00066810526 -4.9734583e-05
0002e0 65 3a 74 ba d4 44 dc bd ba 3b 1e 3c a7 78 26 bc
       -0.0009316563 -0.107553154 0.009657795 -0.010160602
0002f0 90 63 90 bd 95 2e bc bc d0 b4 b4 bb 82 b7 da 37
       -0.0705024 -0.02297143 -0.0055147186 2.6073078e-05
000300 48 17 f0 bd 1b 37 6e bb 21 18 06 bc cb c7 89 bd
       -0.117231905 -0.0036348763 -0.008184464 -0.067275606
000310 dc ac 5c bd 89 a6 57 ba 16 57 c1 bb ec 0c f3 b9
       -0.05387579 -0.0008226415 -0.005900274 -0.000463582
000320 a6 67 ea b9 ed f8 16 be 6d c4 b0 bd 53 2c 79 b8
       -0.00044709182 -0.14743395 -0.08631215 -5.9407506e-05
000330 9b 5d d5 bd 1a a9 7d bd 15 45 54 bb f4 d1 dd bd
       -0.104182445 -0.061928846 -0.003238981 -0.10831061
000340 03 dc bf bc 4c 3b 82 b8 b9 3e d0 ba 14 06 f0 b9
       -0.02342034 -6.209928e-05 -0.0015887833 -0.00045780896
000350 06 32 db bd 20 5e 53 b8 5f 47 94 ba 3f 5d 68 b8
       -0.107029006 -5.039398e-05 -0.0011312774 -5.5399953e-05
000360 86 0b a1 ba d4 35 da bd 82 46 db bc 63 5c f1 bb
       -0.001228676 -0.10654798 -0.02676702 -0.0073657497
000370 d9 85 a8 bd d1 8d 65 bd c2 06 03 bc bd f3 f3 b8
       -0.082286544 -0.05604345 -0.007997217 -0.00011632543
000380 58 91 e7 bd 1f e3 41 bb 24 d1 f8 bb 6f a9 15 be
       -0.11307019 -0.0029584838 -0.007593291 -0.14615415
000390 d5 9b 3c bd 4d 28 70 ba 31 84 c4 bb 50 57 03 ba
       -0.04604705 -0.0009161279 -0.0059972038 -0.0005010264
0003a0 77 a5 03 ba 47 a6 ea bd b6 38 99 bd f0 a9 8d b8
       -0.00050219096 -0.11457496 -0.0748152 -6.755057e-05
0003b0 e6 d2 d7 bd 3a 0f 4d be a7 19 71 bb ee 6e db bd
       -0.105382726 -0.2002534 -0.0036788972 -0.107145175
0003c0 3f 5e 76 3a b8 5a 9b b8 59 99 75 bb 26 96 b6 b9
       0.0009398199 -7.4078736e-05 -0.0037475436 -0.00034825614
0003d0 b6 1e f7 3d 52 50 81 b8 72 b4 bb ba 39 c4 a1 b8
       0.120664045 -6.16616e-05 -0.0014320745 -7.7136276e-05
0003e0 ec 0f 84 ba 0a 75 cd bd 6d a8 db bc 35 7a 35 bc
       -0.0010075546 -0.10032089 -0.02681371 -0.0110765
0003f0 c9 43 8f bd 22 b5 3e bd 0e d4 c3 bb 27 a1 17 b9
       -0.06995351 -0.04655946 -0.0059762066 -0.00014460516

linear_classifier.0.bias f4 [784]
000000 7f df e6 bd 84 f0 e2 bd 6b ab e4 bd f2 36 ea bd
       -0.11273097 -0.11081031 -0.11165508 -0.11436261
000010 24 84 eb bd df 3f e4 bd a7 6e ef bd f3 45 e1 bd
       -0.11499813 -0.11144995 -0.11691027 -0.1099967
000020 83 eb e1 bd 38 da e6 bd 59 0d d9 bd b8 9f bc bd
       -0.110312484 -0.11272091 -0.10598249 -0.092101514
000030 0d 89 b0 bd 85 43 b3 bd c8 4d b4 bd 19 f9 ac bd
       -0.0861989 -0.08753113 -0.08803898 -0.08445949
000040 69 99 b1 bd b2 2e c8 bd 23 70 e8 bd 01 8e 05 be
       -0.08671839 -0.097745314 -0.113495134 -0.13042451
000050 74 22 0c be fd 4b 0e be b7 1e 0f be ac 76 0f be
       -0.13685018 -0.13896175 -0.1397656 -0.14010113
000060 0b d5 0f be dd 0a 10 be e0 31 10 be ef 45 10 be
       -0.14046113 -0.14066644 -0.14081526 -0.14089178
000070 d9 47 10 be 79 42 10 be c9 2d 10 be c1 e6 0f be
       -0.14089908 -0.14087857 -0.14079966 -0.1405287
000080 f3 7c 0f be a9 34 0e be b6 e5 08 be 84 26 fc bd
       -0.14012508 -0.13887276 -0.13368878 -0.12312034
000090 50 e9 dc bd 0d 38 ae bd 98 f8 5e bd 17 a0 02 bd
       -0.10786688 -0.085067846 -0.054436296 -0.031890955
0000a0 8a f5 95 bc b2 14 a6 bc bb 04 bb bc 2f 7b 88 bc
       -0.018305559 -0.02027354 -0.022829404 -0.016660301
0000b0 fb c6 ab bc 95 cf 2c bd b4 2e 82 bd 2d 00 c0 bd
       -0.020968905 -0.042190153 -0.06356564 -0.093750335
0000c0 3a aa e9 bd 22 53 02 be 63 08 0a be b3 c7 0c be
       -0.11409421 -0.12727025 -0.13479762 -0.13748054
0000d0 87 11 0e be f4 12 0f be 4c ce 0f be 1a 33 10 be
       -0.13873874 -0.13972074 -0.1404354 -0.14081994
0000e0 de 41 10 be e1 32 10 be 5c 02 10 be 37 8d 0f be
       -0.14087626 -0.14081909 -0.140634 -0.14018713
0000f0 2c 2a 0e be 33 83 06 be 86 45 ef bd 4c b2 d5 bd
       -0.13883275 -0.13135986 -0.116831824 -0.10434398
000100 bb c9 b6 bd 3a 54 85 bd 96 30 21 bd 96 6c 00 bd
       -0.08925196 -0.065102056 -0.039352976 -0.031353556
000110 4a 46 dc bc fb 37 d0 bc 24 2c d0 bc 6a 9a c5 bc
       -0.026888985 -0.025417319 -0.025411673 -0.024121482
000120 14 f8 e1 bc 94 66 05 bd e2 ea 36 bd b2 85 94 bd
       -0.027584113 -0.03256853 -0.044657595 -0.07252063
000130 b2 da bf bd 24 6d da bd d5 b2 f7 bd fb 4f 07 be
       -0.09367885 -0.10665348 -0.120946564 -0.13214104
000140 78 6e 0b be ec a3 0d be 62 29 0f be 02 0f 10 be
       -0.13616359 -0.13832062 -0.1398063 -0.14068225
000150 41 39 10 be 8a 0d 10 be 43 b5 0f be c6 d0 0e be
       -0.1408434 -0.14067665 -0.1403399 -0.13946828
000160 c9 24 0a be 99 d3 f6 bd 49 76 d5 bd db d2 b6 bd
       -0.13490595 -0.12052078 -0.10422952 -0.08926936
000170 00 59 95 bd 37 d1 50 bd b0 3c 0a bd 6a 28 f9 bc
       -0.07292366 -0.050980773 -0.033749282 -0.030414779
000180 9a d9 e5 bc 05 96 dd bc 73 3e d5 bc ac 49 d1 bc
       -0.028057862 -0.027049074 -0.026030755 -0.025547825
000190 a5 4d d6 bc b1 c0 e5 bc e3 7d 05 bd 2e 30 59 bd
       -0.02616007 -0.028045984 -0.032590758 -0.053024463
0001a0 5b e8 98 bd f7 27 ba bd a8 c4 d9 bd d1 06 fb bd
       -0.07466193 -0.09089654 -0.10633212 -0.122571595
0001b0 fc 2e 07 be 50 6d 0b be 90 16 0e be 63 ca 0f be
       -0.13201517 -0.13615918 -0.13875794 -0.14042048
0001c0 ff 2a 10 be 0b c1 0f be 8c 1b 0f be cd 24 0d be
       -0.14078902 -0.14038484 -0.13975352 -0.1378357
0001d0 97 2d 04 be 94 60 e3 bd 4c 8a ba bd 87 4c 9e bd
       -0.12908016 -0.11102405 -0.09108409 -0.0772944
0001e0 c8 f4 84 bd 2b f0 3a bd 91 44 02 bd 53 ec f7 bc
       -0.06492001 -0.0456392 -0.03180367 -0.030264055
0001f0 5b cf e9 bc 73 ff da bc 84 ea c7 bc f6 9a bd bc
       -0.028541258 -0.026733136 -0.024403818 -0.02314518
000200 c9 19 ba bc 4f 39 c3 bc c9 5a dd bc ad ce 2d bd
       -0.022717373 -0.023831038 -0.027020829 -0.04243343
000210 7d fd 7a bd 3d 24 99 bd cf 4e bd bd d9 5f e5 bd
       -0.0612769 -0.07477615 -0.09243547 -0.11199922
000220 21 bf 00 be d6 e4 07 be 76 3b 0c be ab 5d 0f be
       -0.1257291 -0.13270888 -0.13694558 -0.14000575
000230 59 01 10 be 7c 2a 0f be 59 ef 0d be a6 69 0a be
       -0.14063014 -0.1398105 -0.13860835 -0.13516864
000240 31 9d fb bd 29 88 cf bd 8b 62 a7 bd 4d 3e 90 bd
       -0.12285841 -0.10133392 -0.081730925 -0.07043133
000250 56 fb 71 bd b3 b5 26 bd 66 44 f4 bc d1 36 ef bc
       -0.059077583 -0.040700626 -0.029817771 -0.029200943
000260 b5 d2 e8 bc aa 3a d0 bc 2e e1 b1 bc 07 61 a2 bc
       -0.028420785 -0.025418598 -0.02171382 -0.019821657
000270 0d 42 93 bc dc 99 8f bc 03 5d a5 bc 34 b7 05 bd
       -0.017975831 -0.01752942 -0.020185953 -0.03264542
000280 be cd 50 bd 2c c4 80 bd 78 2b a1 bd 9d 95 cd bd
       -0.05097746 -0.06287417 -0.07869619 -0.10038302
000290 26 dd ef bd 59 fe 01 be 3a 17 09 be 31 c5 0e be
       -0.117121026 -0.12694682 -0.13387766 -0.1394241
0002a0 b5 ce 0f be 37 69 0e be 6d 61 0c be 12 c1 06 be
       -0.14043696 -0.13907324 -0.1370904 -0.13159588
0002b0 34 fa ee bd 90 4f bf bd a7 44 99 bd 41 69 83 bd
       -0.11668816 -0.09341347 -0.074837975 -0.0641656
0002c0 be 41 60 bd 93 f1 1b bd 47 64 eb bc 18 45 e2 bc
       -0.054750197 -0.03807218 -0.02873434 -0.027620837
0002d0 be fb da bc 5a 77 bb bc da 98 93 bc b1 8f 6b bc
       -0.026731368 -0.02288406 -0.018017221 -0.01437752
0002e0 51 02 3c bc e5 c6 2e bc 44 4b 63 bc b9 df c8 bc
       -0.011475162 -0.010667537 -0.013872925 -0.024520742
0002f0 06 4a 29 bd 8f 66 54 bd cf 7a 88 bd 2a fd b6 bd
       -0.04133036 -0.05185562 -0.06664049 -0.08935006
000300 4a e6 dc bd b2 c2 f4 bd 97 70 05 be 99 05 0e be
       -0.10786112 -0.11951198 -0.13031231 -0.13869323
000310 d1 78 0f be 49 60 0d be 49 82 0a be e6 2b 03 be
       -0.14010932 -0.13806261 -0.13526262 -0.12809715
000320 c7 4b e4 bd 36 5d b2 bd 45 c2 8d bd 6e 7a 6f bd
       -0.11147266 -0.08709185 -0.069218196 -0.058466367
000330 9a fb 50 bd 3a 2d 17 bd d6 fa e0 bc 9e 6c d1 bc
       -0.051021196 -0.036908366 -0.027463358 -0.025564488
000340 da bd c7 bc cd 19 a7 bc be 86 7b bc d2 b5 ff bb
       -0.02438252 -0.020398045 -0.015351949 -0.007803657
000350 e7 f8 7b bb a5 46 53 bb 67 2c fc bb 30 74 8e bc
       -0.0038447918 -0.0032238152 -0.007695723 -0.017389387
000360 cf 74 02 bd 26 21 2a bd 71 4e 65 bd 6a be a1 bd
       -0.03184968 -0.04153552 -0.05598301 -0.07897647
000370 8a 2c ca bd a9 a6 e4 bd de 93 01 be 05 52 0d be
       -0.098717764 -0.111646004 -0.12654063 -0.13800819
000380 1c 34 0f be b8 53 0c be 5e a7 08 be b3 13 00 be
       -0.13984722 -0.13703811 -0.13345096 -0.12507515
000390 f9 60 dc bd 48 ca a8 bd 63 2e 86 bd 24 40 5b bd
       -0.107606836 -0.08241707 -0.06551816 -0.053527966
0003a0 d4 c3 41 bd be fe 12 bd 47 9d d4 bc 7b c0 bf bc
       -0.047305897 -0.035887472 -0.025953902 -0.023407212
0003b0 d5 83 ad bc 0c 6f 8e bc 1a e1 75 bc 0e de 32 3a
       -0.021181026 -0.017386936 -0.015007282 0.000682325
0003c0 dd 81 c3 3b 62 68 cd 3b 1b 35 cf ba ef f0 3b bc
       0.0059664086 0.006268547 -0.0015808673 -0.011471017
0003d0 b1 3c b7 bc a3 de 01 bd f4 78 3c bd ad c6 8c bd
       -0.022367807 -0.031706464 -0.046013787 -0.06873832
0003e0 7d 92 b7 bd 73 de d3 bd 94 e6 f9 bd f5 63 0c be
       -0.08963487 -0.10345163 -0.122021824 -0.13710006
0003f0 c3 f5 0e be ad 3b 0b be ea 50 07 be 9f cb fb bd
       -0.13960938 -0.13596983 -0.1321446 -0.12294697
