models/fmnist_unsup-model.pt (torch, 206312 bytes, 4 tensors)

model.0.weight f4 [32, 784]
000000 02 1f 90 be 1d 12 79 3e 85 78 d7 bc bd dc 3f bc
       -0.28148657 0.24323316 -0.026302585 -0.011710343
000010 f6 ac 31 ba f4 18 5b bc bf 23 8f 3d 96 27 50 3d
       -0.00067777873 -0.0133726485 0.0698924 0.050819002
000020 11 39 cb 3c 82 34 87 be 72 b4 3c be 7a 95 3c 3e
       0.024807485 -0.26407248 -0.1842821 0.18416396
000030 54 17 d0 3e c0 ea 05 3c d5 7d 5a 3e 6e 5c 73 3d
       0.40642798 0.008173645 0.21337064 0.05941432
000040 98 a9 15 3d 74 3d 6b 3e 17 53 41 bd f2 42 30 bd
       0.03653869 0.22972661 -0.04719838 -0.043032594
000050 5a 59 fe 3d 9c a1 4c bd d2 00 91 bd 58 18 0e bf
       0.12419386 -0.04995881 -0.070802346 -0.55505896
000060 96 43 bf be ee cb 2f be 6f d1 2f bd 5d 91 6f 3b
       -0.3735625 -0.17167637 -0.04292434 0.003655515
000070 f8 56 6e 3e d1 94 1e be 36 af dd 3d 2e cd 3f 3e
       0.23275363 -0.15486456 0.108244345 0.18730614
000080 22 13 4a bd 10 74 78 3e 6e bb 84 3e bc bc 0d bc
       -0.049334653 0.24263024 0.25924248 -0.008650955
000090 fc 04 19 3e 0f 14 8d 3e dc ed 1d 3e 7d d8 e1 3e
       0.14943308 0.27554366 0.15422767 0.4411048
0000a0 19 d6 8e 3e 91 e7 ad 3e 71 91 c5 bb ff 19 ba 3d
       0.2789772 0.33965734 -0.006029301 0.090869896
0000b0 f4 f9 b6 bd 83 fe 40 be 7d 9b 63 3e 78 40 10 3e
       -0.089343935 -0.18847089 0.22227283 0.14087093
0000c0 62 ba 05 3e 29 c2 4a bb f7 f7 2f bd 0c be 91 be
       0.1305938 -0.0030938482 -0.042961087 -0.28465307
0000d0 7c f8 bf 3e 9f bc 0c be 71 38 13 be 30 85 bc bd
       0.37494266 -0.13743828 -0.14377 -0.09205091
0000e0 56 02 11 3e 92 5c ff 3d 56 05 b4 be 2b bb 93 bd
       0.14161047 0.12468828 -0.3516032 -0.07213434
0000f0 02 c3 10 be 2b 8a 06 bd 24 7e 41 be f5 6b 44 be
       -0.1413689 -0.03284661 -0.18895775 -0.19181807
000100 a1 c8 c6 3d a8 21 88 bd fd 87 24 3e d0 a1 c0 bd
       0.09706236 -0.066470444 0.160675 -0.09405863
000110 3c 17 7f 3e 63 83 3d 3e ca 9f eb 3d 74 9b 60 3e
       0.24911207 0.18507151 0.11505087 0.219343
000120 38 3f c4 3d e4 fb 8c 3d fc c3 76 3d f2 17 92 3d
       0.095823705 0.06883982 0.0602455 0.071334735
000130 f7 fa 2c 3e ca 56 05 3d e8 a5 7e bd ce 3f 70 bc
       0.1689261 0.03255347 -0.06216994 -0.01466365
000140 28 2b 92 bc 84 7f 73 3d ef e3 a2 bc 45 7c 37 bd
       -0.017842844 0.05944778 -0.019884078 -0.044796247
000150 70 8e 14 bd d0 94 be bd 5f fc d4 bc 00 59 cc bd
       -0.03626865 -0.093057275 -0.025999246 -0.09977913
000160 e4 d7 c9 bd d7 5d 67 3e 3a 3f 97 bd 23 c8 c8 bd
       -0.09855631 0.22594391 -0.073851064 -0.09803798
000170 c8 6d 52 bd 31 1b 33 3a 86 f7 0e 3f a2 42 37 be
       -0.051374227 0.000683236 0.5584644 -0.17896512
000180 88 5f 85 be 24 27 53 3e 89 d1 aa be c5 57 dd bd
       -0.26049447 0.206204 -0.33362988 -0.10807756
000190 49 39 49 be 34 9c 5a be 00 5b dc bd c7 43 53 3e
       -0.19650759 -0.2134865 -0.107595444 0.20631324
0001a0 90 d3 50 3e de a1 b0 3d 4b 1e ae bd ca d1 34 be
       0.20393205 0.08624624 -0.08501872 -0.17658153
0001b0 37 fd 2b bd 80 c4 67 be 03 6f f8 3d cc 4f 13 be
       -0.04198953 -0.22633553 0.12130549 -0.14385909
0001c0 19 d1 22 bd a7 70 f0 3d 5c fa 49 3e f4 7a 7e 3e
       -0.039750192 0.11740237 0.19724411 0.2485159
0001d0 14 3d 25 3d 14 e9 da bc 6a 5e a0 bc de 1d 80 be
       0.04034145 -0.026722468 -0.01957627 -0.25022787
0001e0 8b e0 5c 3d 2b be 17 be cd 49 23 bd e1 94 53 bd
       0.05392508 -0.14818637 -0.039865304 -0.051655654
0001f0 f6 14 4f 3e c0 fd 3f be 50 60 ff 3d b0 ed ad bd
       0.2022284 -0.18749142 0.12469542 -0.08492601
000200 66 c5 43 be 44 08 d4 3d cc 2f bc 3b 5c e0 27 3d
       -0.1911827 0.10353139 0.0057430025 0.04098545
000210 42 7c 6b be a8 04 d2 bd a8 bd 80 3c 97 fb 5b be
       -0.2299662 -0.10254794 0.015715435 -0.21482693
000220 66 dd 08 3e 3d 61 94 3c a6 73 04 bd e8 da 5e 3e
       0.13365707 0.018112773 -0.032336853 0.21763194
000230 54 7f 8a 3d 05 9e 8b 3d 8c 8f 95 be 52 65 78 be
       0.06762567 0.06817249 -0.2921108 -0.242574
000240 57 33 b0 3d d5 3e 74 3c 9a a5 a2 bd 90 ed b0 bb
       0.08603542 0.014907558 -0.07941742 -0.0053994134
000250 37 3b 41 be 20 75 af bd 14 84 18 3d 7c 42 d0 3c
       -0.18870245 -0.08567262 0.037235335 0.025422327
000260 5e e2 24 bc b6 2c d6 3d b3 7b 26 3e 2d 88 ca 3c
       -0.010063736 0.10457747 0.16258125 0.024723137
000270 ad 10 12 3e ec 80 01 3e 14 4d 00 be 55 59 7c 3d
       0.14264174 0.12646836 -0.12529403 0.06160863
000280 e3 f9 da 3d 3d c2 23 3d 1b 8d 79 3c 85 7a 45 3d
       0.10692193 0.039980162 0.015231396 0.048212547
000290 27 10 fe bd b5 14 e1 3d 65 da 5c be ff ae 0b 3e
       -0.124054246 0.10990278 -0.21567686 0.13640974
0002a0 76 ad a5 be e9 40 42 be b8 5b 97 3e d3 8b 58 3e
       -0.32358903 -0.18970074 0.29562163 0.21147089
0002b0 18 57 8f 3d 3b e7 c0 bd f8 19 9a bc df 8e f2 bd
       0.06999034 -0.09419104 -0.018811211 -0.11843657
0002c0 d3 f2 f7 3b 06 8d 42 3e eb f3 b1 3c 4b e6 3b 3e
       0.0075667887 0.18999109 0.021722754 0.18349569
0002d0 c1 05 eb bc 28 a9 ae bd 9d f1 a1 3e 4d 6f 29 3e
       -0.028689267 -0.08528358 0.3162965 0.16546364
0002e0 7d 17 98 3e 73 18 b4 bd 7a 72 db 3d 77 52 1b 3e
       0.2970542 -0.08793726 0.10715194 0.15168177
0002f0 45 0a 76 3d ea a8 82 bc c4 f9 db 3d 46 79 27 3c
       0.060068388 -0.015949685 0.107409984 0.010221785
000300 e5 75 eb bc 7a e8 51 3e 42 98 31 be 14 b2 b6 bc
       -0.02874274 0.20498839 -0.17343238 -0.022301711
000310 f7 89 be bd 57 27 56 be aa 19 15 bc e0 e4 95 bd
       -0.093036585 -0.20913444 -0.009100357 -0.07319045
000320 a3 ed 61 3d a5 13 e8 3b 74 c0 8b 3d 01 5d 95 3c
       0.05515827 0.00708242 0.06823817 0.018232824
000330 93 3f 86 bd c5 cb e1 bb 41 35 aa bc 4c 52 11 3e
       -0.065550946 -0.0068907463 -0.020777347 0.1419155
000340 e1 10 f5 3d c5 35 cc 3d ec 01 d7 3e 9b 62 38 bd
       0.1196611 0.09971193 0.41993654 -0.045015913
000350 99 b4 86 bd 7e 77 32 3e 95 81 9b 3c dc c8 da 3c
       -0.06577415 0.17428395 0.018982688 0.026707105
000360 bf da c5 3d 71 83 05 be fe ee d4 3d 15 c2 4e bc
       0.09660863 -0.13038422 0.10397147 -0.012619515
000370 11 e5 18 be 72 5b 86 3b 70 3d 79 be 2c 7c bd 3d
       -0.14931132 0.0041002566 -0.24339843 0.092521995
000380 d4 45 5f be 8f 83 a9 3a e8 e3 5f 3e 9d cb c7 3e
       -0.21803981 0.0012932884 0.21864283 0.39022532
000390 14 f8 df 3e 73 b5 c2 3d a9 c0 c7 bd 5b 70 0b 3e
       0.43743956 0.09507265 -0.09753544 0.13617079
0003a0 86 44 67 3b 73 d8 49 bc 42 28 3e be 42 5e aa 3e
       0.0035288646 -0.012319672 -0.18570045 0.33275038
0003b0 2b bb 09 3f 96 d7 85 bc 1a bc 4e 3e d3 cb cd 3e
       0.5380122 -0.016338151 0.20188943 0.40194568
0003c0 f6 e1 4c be f5 bf 6c 3e fe fe fb 3d c8 d0 be 3d
       -0.20008072 0.23120101 0.12304495 0.093171656
0003d0 e0 2f 7f be 3e 29 38 be dd 5f bd bd 42 4e 87 3d
       -0.24920607 -0.17984483 -0.092468 0.06606723
0003e0 88 8e be 3d 47 f9 22 3d 09 e4 00 be 95 69 1c 3d
       0.093045294 0.03978851 -0.12586989 0.03818663
0003f0 8a cc 58 bd d5 a9 ab bd b1 06 80 3d 9b d7 32 3e
       -0.05292944 -0.08382002 0.06251276 0.1746506

model.0.bias f4 [32]
000000 ba 2c f6 3d cf 96 e4 3e 43 65 35 3e b1 ba ce 3c
       0.1202025 0.44646308 0.1771441 0.025235506
000010 19 86 72 3e 82 02 6b 3d 7f 8b 0d 3d 5b 71 e6 bb
       0.23683967 0.05737544 0.034556862 -0.007032556
000020 a5 d0 0d 3b 28 6b cd 3d 07 b7 c0 3c ae 07 77 3e
       0.0021639254 0.10030204 0.023524774 0.24124023
000030 5c 78 a5 3b 72 cb 57 3e b4 04 98 3d 87 93 b5 3e
       0.0050497483 0.21073702 0.07422772 0.35464117
000040 49 81 c3 3c ae 28 56 3e 87 47 31 3c 9b 34 06 3c
       0.023865359 0.20913956 0.010820276 0.008191253
000050 a3 57 8d 3e 6a c4 d0 bc 74 6d 20 bd 80 9d f9 38
       0.27605924 -0.025484283 -0.039166883 0.00011902582
000060 3a d8 b3 3a 28 92 bd 3d 01 f9 59 3e 76 e2 db 3a
       0.0013721057 0.09256393 0.21286394 0.0016775865
000070 79 af 2e bd e9 b9 04 3e 00 5a ce 3c 20 44 08 bd
       -0.042647813 0.12961544 0.0251894 -0.033268094

linear_classifier.0.weight f4 [784, 32]
000000 06 5b 4f bc af 10 5d bd 1f d7 57 bc bd 99 03 bb
       -0.012655979 -0.05397099 -0.013173847 -0.0020080649
000010 05 97 a0 bd 81 aa 0c bc 96 5f 59 bb ec 1a 32 bc
       -0.07841305 -0.008585573 -0.0033168546 -0.0108706765
000020 67 38 4b ba b1 67 42 bc 0e a0 29 bb 43 0b ba bd
       -0.000775224 -0.011865542 -0.0025882754 -0.09084179
000030 d1 be 55 ba 41 06 45 bd ab 76 9d bb b6 dd c3 bc
       -0.0008153739 -0.048101667 -0.004805406 -0.023909431
000040 27 ee 13 bb 1c 17 aa bd 19 99 c2 ba 24 f3 db ba
       -0.002257237 -0.08305189 -0.0014846652 -0.0016780836
000050 5f 53 ae bc d5 22 6b bd 1e 87 9e bc d9 83 0d b9
       -0.021279989 -0.057406265 -0.019351538 -0.00013495925
000060 f3 8c ca b9 69 7c 65 bc a7 bd ee bc 8c 03 b4 bc
       -0.00038633458 -0.0140067125 -0.029143168 -0.021974348
000070 0f 32 55 bc f9 b7 41 bc e2 77 2c bb 08 5a 9e bd
       -0.013012423 -0.011823648 -0.0026316573 -0.07732016
000080 25 5b 4f bc a6 10 5d bd 6e d7 57 bc c8 9a 03 bb
       -0.012656008 -0.053970955 -0.013173921 -0.002008127
000090 ce 95 a0 bd c5 a6 0c bc 6d 5c 59 bb 7f 19 32 bc
       -0.07841073 -0.008584683 -0.0033166662 -0.010870337
0000a0 49 3b 4b ba 61 66 42 bc 50 a2 29 bb 81 09 ba bd
       -0.00077526696 -0.011865229 -0.00258841 -0.09083844
0000b0 b9 c1 55 ba 19 04 45 bd 0d 79 9d bb f1 de c3 bc
       -0.0008154172 -0.04809961 -0.00480569 -0.023910018
0000c0 47 ef 13 bb df 15 aa bd 88 9b c2 ba dc ee db ba
       -0.002257304 -0.08304953 -0.0014847377 -0.001677956
0000d0 92 54 ae bc a4 1e 6b bd eb 83 9e bc 59 85 0d b9
       -0.02128056 -0.057402268 -0.019350013 -0.00013496484
0000e0 6e 8f ca b9 ca 7b 65 bc e5 ba ee bc fb 01 b4 bc
       -0.00038635306 -0.014006564 -0.029141853 -0.0219736
0000f0 0a 30 55 bc e7 b8 41 bc df 74 2c bb 9d 58 9e bd
       -0.013011942 -0.011823869 -0.0026314778 -0.077317454
000100 0e 49 4f bc 17 12 5d bd 07 db 57 bc 93 92 03 bb
       -0.012651695 -0.05397233 -0.013174779 -0.0020076379
000110 8d 8d a0 bd bd aa 0c bc 85 5f 59 bb 7a 01 32 bc
       -0.07839499 -0.008585629 -0.0033168506 -0.01086461
000120 0f 42 4b ba 98 61 42 bc 4b ae 29 bb 9f ff b9 bd
       -0.0007753679 -0.0118640885 -0.002589124 -0.09081959
000130 7e cf 55 ba 34 fd 44 bd 55 82 9d bb fe e1 c3 bc
       -0.0008156224 -0.048093036 -0.0048067966 -0.023911472
000140 2e f1 13 bb 4a 0e aa bd dc 97 c2 ba 86 f1 db ba
       -0.0022574174 -0.08303507 -0.0014846283 -0.0016780354
000150 04 4d ae bc 6a 08 6b bd 95 78 9e bc 9a 89 0d b9
       -0.021276958 -0.05738107 -0.019344607 -0.00013498068
000160 77 9a ca b9 0d 78 65 bc 2b b2 ee bc 5f f6 b3 bc
       -0.00038643528 -0.014005673 -0.029137691 -0.021968065
000170 37 23 55 bc 83 c0 41 bc b3 6e 2c bb 60 4c 9e bd
       -0.013008884 -0.0118256835 -0.00263111 -0.07729411
000180 40 31 4f bc bc 14 5d bd 08 cb 57 bc 7b 92 03 bb
       -0.012646019 -0.053974852 -0.013170965 -0.0020076323
000190 ea 70 a0 bd b7 a7 0c bc 77 46 59 bb f6 b4 31 bc
       -0.07834037 -0.008584908 -0.0033153573 -0.010846367
0001a0 81 d4 4a ba 7d 40 42 bc 59 d2 29 bb ea db b9 bd
       -0.0007737354 -0.0118561955 -0.002591273 -0.090751484
0001b0 d2 f6 55 ba de f6 44 bd 4a 9d 9d bb f8 f7 c3 bc
       -0.0008162084 -0.048086993 -0.00481001 -0.023921952
0001c0 ef 06 14 bb 39 f6 a9 bd b4 96 c2 ba bf 0d dc ba
       -0.002258714 -0.08298916 -0.0014845938 -0.0016788765
0001d0 89 57 ae bc 3b c3 6a bd 3e 46 9e bc 17 20 0d b9
       -0.021281974 -0.057315093 -0.019320603 -0.00013458762
0001e0 b5 a6 ca b9 5e 6d 65 bc 99 9b ee bc 4d ad b3 bc
       -0.0003865265 -0.014003126 -0.02912693 -0.021933222
0001f0 40 e3 54 bc 38 dc 41 bc fc 7f 2c bb e3 29 9e bd
       -0.012993634 -0.011832289 -0.0026321402 -0.07722833
000200 69 b2 4e bc 80 1c 5d bd e1 b8 57 bc 87 85 03 bb
       -0.0126157785 -0.053982258 -0.013166637 -0.0020068602
000210 9a 3c a0 bd 87 ab 0c bc 83 54 59 bb 62 2d 31 bc
       -0.07824059 -0.008585817 -0.0033161945 -0.010814043
000220 97 ac 4a ba 70 e9 41 bc 1b 1c 2a bb 68 93 b9 bd
       -0.00077314064 -0.011835441 -0.0025956694 -0.09061319
000230 17 48 56 ba 7d c2 44 bd bd 71 9d bb 6c e8 c3 bc
       -0.00081741944 -0.04803704 -0.0048048184 -0.023914538
000240 81 23 14 bb f9 c0 a9 bd 7e 6f c1 ba a2 5b dc ba
       -0.002260417 -0.0828876 -0.0014757959 -0.0016811977
000250 92 40 ae bc 53 46 6a bd 71 fb 9d bc db 63 0c b9
       -0.021271024 -0.057195973 -0.019284936 -0.0001338864
000260 dc da c9 b9 f0 5f 65 bc b2 a6 ee bc 6a 2e b3 bc
       -0.0003850077 -0.013999924 -0.02913222 -0.021872718
000270 eb af 54 bc 59 18 42 bc 47 84 2c bb a1 d8 9d bd
       -0.012981395 -0.011846625 -0.002632396 -0.07707334
000280 91 71 4e bc 07 2a 5d bd b8 cf 57 bc 05 89 03 bb
       -0.0126003185 -0.05399516 -0.013172083 -0.0020070684
000290 1e 12 a0 bd c4 e1 0c bc fc a4 59 bb 35 9d 30 bc
       -0.078159556 -0.008598749 -0.003320991 -0.010779669
0002a0 ed bb 4a ba 9d ac 41 bc b3 59 2a bb f7 62 b9 bd
       -0.00077336916 -0.011820939 -0.0025993406 -0.09052079
0002b0 70 5a 56 ba 0a 9f 44 bd 3b 9d 9d bb 15 02 c4 bc
       -0.00081769284 -0.048003234 -0.004810003 -0.023926774
0002c0 32 59 14 bb 8a 92 a9 bd 83 35 c1 ba 65 9b dc ba
       -0.0022636172 -0.08279903 -0.0014740679 -0.0016830979
0002d0 22 4b ae bc d0 e9 69 bd 06 ce 9d bc 8b 7a 0c b9
       -0.02127606 -0.057107747 -0.019263279 -0.00013397091
0002e0 a0 bd c9 b9 60 72 65 bc 1d c2 ee bc 7f d2 b2 bc
       -0.0003847899 -0.01400432 -0.029145295 -0.021828888
0002f0 51 51 54 bc 58 4e 42 bc 41 aa 2c bb 55 93 9d bd
       -0.0129588405 -0.011859499 -0.0026346596 -0.07694117
000300 41 d8 4c bc 40 31 5d bd 0f ca 57 bc a6 3a 03 bb
       -0.012502731 -0.054002047 -0.013170733 -0.002002397
000310 38 79 9f bd 73 46 0d bc c3 d4 59 bb ae f1 2e bc
       -0.077867925 -0.008622753 -0.0033238388 -0.010677738
000320 15 42 4b ba e8 3e 41 bc c9 22 2b bb 3b b7 b8 bd
       -0.00077536824 -0.011794783 -0.0026113263 -0.090193234
000330 75 33 57 ba 72 1a 44 bd 90 f2 9d bb 3d 3b c4 bc
       -0.0008209267 -0.047876783 -0.0048201755 -0.023954028
000340 8b ec 14 bb a5 dd a8 bd 7e 54 c0 ba f1 64 dd ba
       -0.0022723998 -0.082454 -0.0014673618 -0.0016891045
000350 7b 16 ae bc 03 a7 68 bd 81 55 9d bc 3d 1d 0c b9
       -0.021250954 -0.0567999 -0.01920581 -0.00013362333
000360 c9 8b ca b9 85 1d 65 bc 90 12 ef bc ae 9c b1 bc
       -0.0003863259 -0.013984089 -0.029183656 -0.021681156
000370 f3 e4 52 bc 10 11 43 bc 6e 5b 2c bb 98 78 9c bd
       -0.012871969 -0.0119059235 -0.0026299614 -0.07640189
000380 f8 49 47 bc d9 2e 5d bd 9f 71 58 bc 23 27 01 bb
       -0.012163632 -0.053999756 -0.013210683 -0.0019707165
000390 98 9a 9d bd fa 78 0e bc 63 87 5a bb cf e6 2b bc
       -0.07695502 -0.008695835 -0.0033344857 -0.010492041
0003a0 8c 26 4c ba 21 21 40 bc d6 ed 2d bb d8 4f b6 bd
       -0.00077877264 -0.011726649 -0.0026539466 -0.08901948
0003b0 96 a8 5a ba 19 c9 42 bd 5b 2d 9f bb 4f d0 c4 bc
       -0.00083411613 -0.047555063 -0.0048577017 -0.02402511
0003c0 9f f6 16 bb 11 56 a6 bd 40 9f bf ba 5b 1c e0 ba
       -0.0023035181 -0.081218846 -0.0014619604 -0.0017098294
0003d0 7f 90 ac bc aa 88 64 bd 74 4a 9c bc 86 68 04 b9
       -0.021064995 -0.055794396 -0.01907847 -0.00012627439
0003e0 83 b6 cd b9 07 30 64 bc b6 04 f1 bc 34 4f ae bc
       -0.0003923663 -0.013927466 -0.029421192 -0.021278001
0003f0 16 16 4f bc 17 dd 45 bc 54 1f 2c bb ca cd 98 bd
       -0.012639543 -0.012076638 -0.002626379 -0.07461126

linear_classifier.0.bias f4 [784]
000000 c7 fe b6 bc 75 fe b6 bc 70 f9 b6 bc a2 e7 b6 bc
       -0.022338284 -0.022338131 -0.022335738 -0.022327248
000010 b1 c2 b6 bc 8c b3 b6 bc ed 57 b6 bc 7a 24 b5 bc
       -0.022309633 -0.022302411 -0.022258723 -0.02211212
000020 98 57 b2 bc db fb a9 bc 7d 71 aa bc 45 90 b1 bc
       -0.021770284 -0.020749977 -0.020806069 -0.021675238
000030 db 97 bb bc 15 4b c4 bc 5d 5a c6 bc 72 9f c2 bc
       -0.022899559 -0.023961583 -0.02421301 -0.02375767
000040 dd eb b8 bc 89 26 b1 bc 65 fa a1 bc 0f c1 ad bc
       -0.022573406 -0.02162482 -0.019772718 -0.021210222
000050 f4 84 b3 bc 9e 28 b5 bc b8 a1 b5 bc 8c e3 b5 bc
       -0.021913983 -0.022114094 -0.02217184 -0.02220323
000060 4b 97 b6 bc 28 dc b6 bc 91 f3 b6 bc a3 ff b6 bc
       -0.022288939 -0.022321776 -0.022332938 -0.022338694
000070 55 fe b6 bc 75 fd b6 bc e9 f2 b6 bc 54 d5 b6 bc
       -0.022338072 -0.022337655 -0.022332625 -0.02231852
000080 35 94 b6 bc d9 a5 b5 bc a1 b3 b1 bc ed 33 ac bc
       -0.022287467 -0.022173809 -0.021692099 -0.021020854
000090 5e ed b7 bc 76 86 e9 bc 08 24 cb bc 62 90 b4 bc
       -0.022452053 -0.028506499 -0.024797454 -0.022041503
0000a0 f7 85 9a bc 53 6a 8f bc 3a 52 8d bc d2 b3 91 bc
       -0.018862708 -0.017506754 -0.017251123 -0.01778594
0000b0 ca 3d a8 bc aa 28 ca bc 8e cf d9 bc ba ab dd bc
       -0.020537276 -0.024677593 -0.026588228 -0.027059425
0000c0 de 3a a8 bc 80 12 ac bc 3e d5 b0 bc 2c 54 b3 bc
       -0.020535883 -0.021004915 -0.021586057 -0.021890722
0000d0 34 79 b5 bc 37 80 b6 bc 9a d2 b6 bc f0 f5 b6 bc
       -0.02215252 -0.022277934 -0.02231722 -0.022334069
0000e0 cd fc b6 bc 09 fb b6 bc 50 e7 b6 bc bc bf b6 bc
       -0.022337342 -0.0223365 -0.022327095 -0.022308223
0000f0 12 cc b5 bc f4 e2 b0 bc 23 9d aa bc 1c fa ca bc
       -0.022192035 -0.021592595 -0.020826882 -0.024777465
000100 77 8b ff bc 41 59 00 bd 7e 9b dc bc 21 2c d9 bc
       -0.031194432 -0.03133512 -0.026929613 -0.0265103
000110 67 b1 c9 bc f5 ee ab bc 2e 54 a1 bc 47 7a bc bc
       -0.024620725 -0.020987967 -0.01969346 -0.023007525
000120 81 ef d8 bc 63 af e4 bc 6c 30 ee bc d1 50 01 bd
       -0.026481392 -0.027915662 -0.029075824 -0.031571213
000130 6c aa eb bc 54 cc af bc f4 0c a7 bc 02 d3 ad bc
       -0.028767787 -0.021459736 -0.020391919 -0.02121878
000140 60 4f b3 bc c0 cf b5 bc cc 8d b6 bc 58 e1 b6 bc
       -0.021888435 -0.02219379 -0.02228441 -0.02232425
000150 02 fd b6 bc 8c f5 b6 bc a0 d1 b6 bc e2 64 b6 bc
       -0.02233744 -0.022333883 -0.022316754 -0.022264902
000160 27 7e b3 bc 43 9b ac bc eb f8 cb bc 58 dc 00 bd
       -0.02191074 -0.021070128 -0.024898967 -0.031460136
000170 74 64 0b bd 19 6c 02 bd 24 c3 e8 bc 41 ab e2 bc
       -0.034031346 -0.03184137 -0.028413363 -0.02766955
000180 5c 01 d9 bc 1c d6 cc bc f6 77 c8 bc 49 ac da bc
       -0.026489906 -0.025004439 -0.024471264 -0.02669348
000190 d9 d4 e3 bc a5 4e ee bc 10 8e f4 bc a9 5c 04 bd
       -0.027811455 -0.029090235 -0.029852897 -0.03231493
0001a0 30 59 05 bd c7 a6 ee bc 1f e7 ab bc 28 87 a6 bc
       -0.03255576 -0.02913226 -0.02098423 -0.02032812
0001b0 cf e3 ae bc 74 71 b4 bc 8e 38 b6 bc d1 ce b6 bc
       -0.021348862 -0.022026755 -0.022243764 -0.022315415
0001c0 87 f9 b6 bc 40 e4 b6 bc 79 b8 b6 bc a7 b7 b5 bc
       -0.02233578 -0.022325635 -0.02230476 -0.022182299
0001d0 23 f4 b0 bc 0f 7a ac bc 00 2e fd bc a5 2a 0e bd
       -0.021600788 -0.021054296 -0.030905724 -0.034708638
0001e0 82 7e 14 bd 20 64 05 bd 1b c9 f0 bc 49 e4 ea bc
       -0.03625346 -0.03256619 -0.02939277 -0.028673308
0001f0 6e e8 e4 bc 35 f3 dd bc 27 e8 d8 bc d8 70 e5 bc
       -0.027942862 -0.02709351 -0.026477886 -0.02800791
000200 65 a5 eb bc 88 bb f4 bc b1 59 fc bc 63 60 0a bd
       -0.02876539 -0.029874578 -0.030804487 -0.033783328
000210 e8 91 0f bd b8 3a 05 bd 19 4c e3 bc d8 74 a3 bc
       -0.035051256 -0.0325267 -0.027746247 -0.019953176
000220 80 d5 a8 bc fd bb b1 bc 9d 8f b5 bc e0 ac b6 bc
       -0.020609617 -0.021696085 -0.022163207 -0.02229923
000230 29 f4 b6 bc ad c2 b6 bc 2f 5d b6 bc a5 c1 b4 bc
       -0.022333222 -0.022309626 -0.02226123 -0.022064993
000240 9d db ae bc 6d 09 d9 bc 7b d5 09 bd 3b dd 14 bd
       -0.021344954 -0.026493752 -0.033650856 -0.036343794
000250 6c 2c 16 bd d2 bd 04 bd b9 a3 f4 bc e7 26 f1 bc
       -0.036663458 -0.03240759 -0.029863225 -0.029437495
000260 5d 5c ed bc 12 0f e4 bc 18 05 df bc 81 93 ec bc
       -0.028974706 -0.027839217 -0.027224109 -0.02887893
000270 09 aa f1 bc 95 68 f7 bc 8b c3 fe bc d5 8a 0b bd
       -0.029500024 -0.030201236 -0.031099102 -0.034067947
000280 3e d8 14 bd 15 15 0e bd aa d8 ff bc a5 9a bb bc
       -0.036339037 -0.034688074 -0.031231243 -0.022900889
000290 b4 b4 a3 bc 7c 92 ac bc 36 a6 b3 bc f8 60 b6 bc
       -0.019983627 -0.021065943 -0.021929841 -0.022263035
0002a0 ae e6 b6 bc 9c 9b b6 bc a6 fe b5 bc f7 87 b3 bc
       -0.022326794 -0.022290997 -0.022216152 -0.021915419
0002b0 27 45 ae bc ff a2 f7 bc f2 4b 0e bd 70 ed 15 bd
       -0.021273209 -0.03022909 -0.034740396 -0.03660339
0002c0 ac 02 17 bd 39 bd 04 bd ca 1f f7 bc 62 a0 f2 bc
       -0.036867782 -0.03240702 -0.030166525 -0.029617492
0002d0 cc 85 ee bc e2 a2 e6 bc 05 e6 e0 bc cd 23 ea bc
       -0.029116534 -0.02815384 -0.027453432 -0.028581524
0002e0 96 b0 ef bc 57 a0 f7 bc ec a4 00 bd cd ba 0c bd
       -0.029259007 -0.030227823 -0.03140728 -0.034357835
0002f0 23 8b 16 bd 5b 3f 11 bd a3 3f 08 bd 01 23 e3 bc
       -0.036753785 -0.03546081 -0.033263814 -0.027726652
000300 e2 bb a8 bc af ca a6 bc a9 d6 b0 bc ab e4 b5 bc
       -0.020597402 -0.020360319 -0.021586733 -0.022203764
000310 bd d6 b6 bc 45 46 b6 bc 23 6f b5 bc 05 93 b2 bc
       -0.022319192 -0.022250304 -0.02214772 -0.02179862
000320 00 99 af bc 44 6b 05 bd 04 8d 10 bd 5f 98 13 bd
       -0.02143526 -0.032573 -0.035290733 -0.036033984
000330 4c 60 15 bd 66 df 05 bd c1 f1 f8 bc eb d7 f2 bc
       -0.03646879 -0.032683752 -0.030388715 -0.029643973
000340 09 34 ef bc d5 e9 e9 bc 7a 7a e6 bc 92 42 e5 bc
       -0.029199617 -0.028553883 -0.028134573 -0.027985845
000350 b7 96 eb bc 80 6f f3 bc 85 ef fe bc 3d 1f 0c bd
       -0.02875839 -0.029716253 -0.031120071 -0.03420948
000360 95 ac 13 bd ed 8f 10 bd 08 6f 0c bd 71 61 f9 bc
       -0.03605326 -0.03529351 -0.034285575 -0.030441971
000370 ec 6f cb bc 60 a7 a8 bc c3 26 ab bc ba 2d b5 bc
       -0.024833642 -0.020587623 -0.020892506 -0.02211653
000380 41 b4 b6 bc d6 f9 b5 bc 17 e5 b4 bc 17 c4 b1 bc
       -0.022302749 -0.022213858 -0.022081895 -0.021699948
000390 4e 07 b3 bc ac bb 0b bd 1e 10 13 bd b5 7c 10 bd
       -0.02185407 -0.034114525 -0.035904042 -0.03527518
0003a0 64 30 12 bd 74 bc 06 bd f2 b4 f9 bc b6 87 f3 bc
       -0.03569068 -0.032894567 -0.03048179 -0.029727798
0003b0 3c 41 ee bc c5 2c ed bc 47 06 f4 bc d4 0a db bc
       -0.02908384 -0.028952012 -0.02978815 -0.026738562
0003c0 ef e1 db bc 43 f5 e3 bc ac 16 f7 bc 66 e8 08 bd
       -0.026841132 -0.02782691 -0.030162178 -0.033424757
0003d0 4f 0f 0d bd 54 4a 0d bd c5 08 0d bd 0a 11 00 bd
       -0.034438428 -0.034494713 -0.03443219 -0.03126625
0003e0 4a 61 db bc 2d 2b c0 bc 4b f2 a2 bc 7c 53 b3 bc
       -0.02677979 -0.023458088 -0.019890925 -0.021890394
0003f0 02 9a b6 bc 38 a8 b5 bc 5a 79 b4 bc 34 66 b1 bc
       -0.022290234 -0.02217494 -0.022030521 -0.02165518
