models/fmnist_unsupervised-model.pt (torch, 206496 bytes, 4 tensors)

model.0.weight f4 [32, 784]
0	0xbe901f0b	-0.28148684
1	0x3e790ff5	0.24322493
2	0xbcdb0a98	-0.02673845
3	0xbc56ad58	-0.013102852
4	0x3ae409c6	0.0017397932
5	0xbc1b4355	-0.009476502
6	0x3d986dc1	0.07442809
7	0x3d9bba52	0.07603897
8	0x3e57ec56	0.21086249
9	0x3d9915d8	0.074748695
10	0x3c3b1df8	0.011420719
11	0x3daf2b09	0.0855313
12	0x3e95f9d4	0.29292166
13	0xbd373272	-0.044725843
14	0x3eae4d8d	0.34043542
15	0x3e314904	0.1731301
16	0x3dc984be	0.09839772
17	0x3ea0516e	0.31312126
18	0x3e3e735b	0.18598692
19	0x3ea031ad	0.312879
20	0x3e5c22ef	0.21497701
21	0xbd6ee3d6	-0.05832275
22	0xbda79513	-0.081827305
23	0xbf0effea	-0.55859244
24	0xbec02920	-0.37531376
25	0xbe30d7a2	-0.17269757
26	0xbd30b840	-0.043144464
27	0x3b6fa2be	0.0036565508
28	0x3e6e5799	0.23275603
29	0xbe1e9ff6	-0.15490708
30	0x3dda922a	0.1067241
31	0x3e3d4d8f	0.18486618
32	0xbd508f20	-0.050917745
33	0x3e717047	0.23577987
34	0x3e5f89ea	0.21829954
35	0xbd273263	-0.040819537
36	0x3e2c44d8	0.16823137
37	0x3ec5a992	0.38605934
38	0x3e913343	0.28359422
39	0x3ecd7cd7	0.40134308
40	0x3d818948	0.063250124
41	0x3e8f20df	0.27954766
42	0x3c17625c	0.009239759
43	0xbc21858f	-0.009858503
44	0xbcb27b7c	-0.021787398
45	0xbba3c2f0	-0.0049976036
46	0x3ea2bc9e	0.31784528
47	0x3e646d56	0.22307333
48	0x3d205f35	0.039153297
49	0xbdbdf534	-0.092752844
50	0xbdcc5133	-0.09976425
51	0xbe9d05a4	-0.30668366
52	0x3ebaacd9	0.36459997
53	0xbe12d65a	-0.14339581
54	0xbe17d7bf	-0.14828394
55	0xbdc1d23f	-0.094639294
56	0x3e110535	0.14162143
57	0x3dfee192	0.12445368
58	0xbeb4cd5b	-0.35312924
59	0xbd9af169	-0.075655766
60	0xbe16c8d9	-0.14725055
61	0xbda44fbb	-0.0802302
62	0xbe874601	-0.26420596
63	0xbe902cf9	-0.2815931
64	0xbd4b8088	-0.049683124
65	0xbca1e0fa	-0.019760597
66	0x3d59a0fc	0.053132042
67	0xbe6ac950	-0.22928357
68	0x3d5bf974	0.053704694
69	0x3cb0df55	0.021590868
70	0x3d8a7a10	0.06761563
71	0x3e035972	0.1282709
72	0x3dbd5f57	0.092467
73	0x3e23c5b2	0.15993384
74	0xbd00dfb6	-0.031463347
75	0xbdc113ac	-0.0942758
76	0xbda3e8f7	-0.08003419
77	0xbe46669a	-0.19375077
78	0xbe3a037f	-0.18165396
79	0xbd6d9489	-0.058002982
80	0xbd16d156	-0.036820732
81	0x3d539813	0.0516587
82	0xbccc9de8	-0.02497764
83	0xbd3e9fb9	-0.046539042
84	0xbd139d84	-0.03603889
85	0xbdbf4eb6	-0.09341185
86	0xbcecd68a	-0.028910894
87	0xbdd66ae4	-0.104696065
88	0xbe0507c6	-0.12991247
89	0x3df9cc69	0.12197191
90	0xbe49761d	-0.19673963
91	0xbe7195d0	-0.23592305
92	0xbe25615c	-0.16150421
93	0x3dc1c833	0.09462013
94	0x3eeada00	0.45869446
95	0xbe834d22	-0.25644785
96	0xbec7c919	-0.39020613
97	0x3e348349	0.17628206
98	0xbe617d2e	-0.22020409
99	0xbe0e7e6b	-0.13915412
100	0xbe476364	-0.19471508
101	0xbdc74592	-0.09730066
102	0xbd37197a	-0.04470203
103	0x3e1a309e	0.15057608
104	0xbd7a9b09	-0.06118301
105	0xbe33dc1b	-0.17564432
106	0xbe80b69c	-0.2513932
107	0xbe75ecc3	-0.24016099
108	0xbd95be04	-0.07311633
109	0xbe765339	-0.24055184
110	0x3df00079	0.1171884
111	0xbe14331c	-0.14472622
112	0xbd207e79	-0.039183114
113	0x3df20754	0.11817804
114	0x3e47bd94	0.19505912
115	0x3e73d79e	0.2381272
116	0xbd1fcafb	-0.039011937
117	0xbe30bcc7	-0.17259513
118	0xbe29c6d2	-0.1657975
119	0xbeb53946	-0.3539526
120	0xbd0691b9	-0.032853816
121	0x3bdd975c	0.006762428
122	0xbd3bf63d	-0.045889128
123	0xbe1a2767	-0.15054093
124	0x3dc70e37	0.09719508
125	0xbe08e973	-0.13370304
126	0x3e2bf5d3	0.16792993
127	0xbd17cb2f	-0.037059005
128	0xbe014c10	-0.12626672
129	0x3e06e206	0.13172159
130	0x3da3e7a9	0.0800317
131	0xbc64eca8	-0.013972439
132	0xbeb76685	-0.35820404
133	0xbe9daec8	-0.3079741
134	0xbe2fbf4c	-0.17162818
135	0xbe9c8ef3	-0.30577812
136	0x3daf9aee	0.08574472
137	0xbc3f934b	-0.011692832
138	0xbd0954b9	-0.033528063
139	0x3e5f3584	0.21797758
140	0x3d8ae614	0.06782165
141	0x3d84aa08	0.064777434
142	0xbe9c4041	-0.30517772
143	0xbe8c5421	-0.27407935
144	0xbc4732d8	-0.012158118
145	0xbdf6ab30	-0.1204437
146	0xbe80f596	-0.25187367
147	0xbde59af3	-0.11211195
148	0xbe90e063	-0.28296193
149	0x3d923089	0.071381636
150	0x3d8469c5	0.064654864
151	0xbdeb6d1c	-0.1149542
152	0xbdd6e469	-0.104927845
153	0x3da5a69f	0.08088421
154	0x3e799c5e	0.24376056
155	0x3d9c127b	0.07620712
156	0x3dd2d009	0.10293586
157	0x3def2675	0.11677257
158	0xbde0b933	-0.10972824
159	0xbd26b597	-0.04070052
160	0xbd240c37	-0.04005071
161	0xbe148447	-0.14503585
162	0xbe2bcf50	-0.16778302
163	0xbd9d3c49	-0.07677514
164	0xbe45a34d	-0.19300576
165	0x3d8f8e56	0.0700957
166	0xbe6a6afc	-0.22892374
167	0x3e0b4e86	0.13604173
168	0xbea5c5ec	-0.32377565
169	0xbe4a19ab	-0.19736354
170	0x3e8d8a05	0.27644363
171	0x3e2d70d5	0.16937573
172	0xbd1ef73b	-0.038809996
173	0xbe70915d	-0.23492952
174	0xbe3c75de	-0.18404338
175	0xbe4ff935	-0.20309909
176	0x3c9a3d77	0.018828137
177	0x3e7caa09	0.24674238
178	0x3d5a6a36	0.053323947
179	0x3b9389c5	0.0045025074
180	0xbe1bb6d8	-0.15206468
181	0xbd2199fc	-0.03945349
182	0x3e83ea3a	0.25764638
183	0x3dc63130	0.096773505
184	0x3e11d54f	0.14241527
185	0xbdd3c274	-0.10339823
186	0x3de077ee	0.10960375
187	0x3d8c77b4	0.06858769
188	0xbd5828a9	-0.05277315
189	0xbe4296c1	-0.1900282
190	0xbd79bf31	-0.06097335
191	0xbde26cb6	-0.11055891
192	0xbe02cdde	-0.12773845
193	0x3e287004	0.1644898
194	0xbe411208	-0.18854535
195	0xbcece0c3	-0.028915768
196	0xbdcfcb72	-0.10146226
197	0xbe5f20c4	-0.21789843
198	0xbcfd16e5	-0.030894706
199	0xbe0d9466	-0.13826141
200	0xbda034a4	-0.078225404
201	0xbe0901ba	-0.13379565
202	0xbdd73157	-0.10507458
203	0xbdeade26	-0.11468153
204	0xbc4df765	-0.0125711905
205	0x3dbc0016	0.09179704
206	0x3c3359cf	0.010946705
207	0xbdfb1c73	-0.12261286
208	0xbe01fcaa	-0.1269404
209	0x3df66258	0.12030476
210	0x3ec5381c	0.3851937
211	0xbd5f7e98	-0.05456409
212	0xbe829312	-0.2550283
213	0x3d822852	0.06355347
214	0x3d9bc1e8	0.07605344
215	0xbd8c598a	-0.06853016
216	0x3d256f23	0.04038919
217	0xbe88eabb	-0.26741585
218	0xbd7a1ca0	-0.061062455
219	0xbdfbc90c	-0.12294206
220	0xbe6a292a	-0.22867265
221	0xbd5d4732	-0.054022975
222	0xbe85cb3b	-0.26131615
223	0x3db1093e	0.08644341
224	0xbe67f599	-0.22652282
225	0xbc2384ca	-0.00998039
226	0x3e437e1e	0.19091079
227	0x3e9e652c	0.30936563
228	0x3e96d4b5	0.29459158
229	0xbd96cbf0	-0.07363117
230	0xbea29f65	-0.31762233
231	0xbbd29bee	-0.0064272797
232	0x3dd3cd9f	0.103419535
233	0x3dc7fb49	0.09764726
234	0xbd6fe77f	-0.05857038
235	0x3d801135	0.06253282
236	0x3e843fe8	0.25830007
237	0xbdb4379e	-0.08799671
238	0x3e167cac	0.14695996
239	0x3ed29050	0.41125727
240	0xbea14db6	-0.315046
241	0x3e0cbe61	0.13744499
242	0x3e4ca52f	0.19984888
243	0xbbe82908	-0.0070849694
244	0xbe732339	-0.23743905
245	0xbe9a0d59	-0.30088308
246	0xbe784354	-0.24244434
247	0xbd80213c	-0.06256339
248	0x3b01fce8	0.0019834582
249	0xbc8a8191	-0.016907485
250	0xbe21151d	-0.1573071
251	0x3cfb1fbb	0.030654779
252	0xbd7b97cf	-0.061424073
253	0xbdc01501	-0.09379006
254	0x3cd7b2d7	0.026330395
255	0x3dc4219d	0.09576724

model.0.bias f4 [32]
0	0x3f63ba24	0.88955903
1	0x40129e9c	2.2909307
2	0x408ba015	4.3632913
3	0x40538952	3.3052564
4	0x3f457257	0.77127594
5	0x3ff70d01	1.9300843
6	0xbf4fe3fb	-0.81207246
7	0x3d911a25	0.07085065
8	0x3e38bf2f	0.18041681
9	0x3ea6921e	0.32533354
10	0x3ff7fd02	1.9374087
11	0xbdadbb24	-0.0848296
12	0x3fefc999	1.8733398
13	0xba9c75d1	-0.0011936967
14	0x3fdd6e94	1.7299371
15	0x3f6c6f19	0.9235702
16	0x3f5bc47d	0.8584669
17	0x3f9c6550	1.2218418
18	0x3cca09eb	0.024662932
19	0x3e5e7a01	0.21726228
20	0x3f72ac30	0.9479399
21	0xbd310a10	-0.043222487
22	0xbd36632a	-0.044528164
23	0x3c2473e5	0.010037397
24	0x3f2bd9fe	0.67129505
25	0x400a34f0	2.159481
26	0x403194d9	2.77471
27	0x3f1d4109	0.6142736
28	0x400f6b49	2.2409232
29	0x3f42034c	0.7578628
30	0x3d793ef8	0.060851067
31	0x3fa84169	1.3144962

linear_classifier.0.weight f4 [784, 32]
0	0xbd2eea5a	-0.042703964
1	0xbd9293a9	-0.0715707
2	0xbe8753f1	-0.2643123
3	0xbdd37216	-0.103244945
4	0xbc15e010	-0.009147659
5	0xbd87d592	-0.06632532
6	0xbcd93edf	-0.026519237
7	0xba191476	-0.0005839536
8	0xba883f36	-0.0010394815
9	0xbb672cc4	-0.0035274485
10	0xbd3a2830	-0.045448482
11	0xb8ab6c3c	-8.1740756e-05
12	0xbd36fc5b	-0.04467426
13	0xb98a6a5a	-0.0002640065
14	0xbd44baaa	-0.04802958
15	0xbd3e7d3c	-0.04650615
16	0xbbae81d2	-0.0053255344
17	0xbd20e19b	-0.039277654
18	0xb96eaa16	-0.0002276081
19	0xba864e5f	-0.0010246745
20	0xbc2190ac	-0.009861153
21	0xb91e3131	-0.0001508638
22	0xb9a0fad0	-0.00030704448
23	0xb89d87aa	-7.511613e-05
24	0xbcff4d77	-0.031164868
25	0xbd70362e	-0.05864542
26	0xbddd17ea	-0.10795577
27	0xbb686276	-0.0035459078
28	0xbd90af4a	-0.07064684
29	0xbc2e1c70	-0.010626897
30	0xb9ec6c6b	-0.00045094205
31	0xbd21f595	-0.039540846
32	0xbd2eeae6	-0.042704485
33	0xbd929406	-0.071571395
34	0xbe8751ed	-0.26429692
35	0xbdd3705d	-0.10324166
36	0xbc15e0a2	-0.009147795
37	0xbd87d43b	-0.066322766
38	0xbcd93194	-0.026512899
39	0xba19144c	-0.0005839511
40	0xba883be8	-0.001039383
41	0xbb672dbe	-0.0035275067
42	0xbd3a28e5	-0.045449156
43	0xb8ab6c48	-8.174084e-05
44	0xbd36fd36	-0.044675075
45	0xb98a6ba3	-0.00026401607
46	0xbd44bb60	-0.048030257
47	0xbd3e7df7	-0.04650685
48	0xbbae810c	-0.005325442
49	0xbd20e243	-0.03927828
50	0xb96eab1b	-0.0002276119
51	0xba864e55	-0.0010246733
52	0xbc218fa8	-0.0098609105
53	0xb91e3071	-0.000150861
54	0xb9a0fa90	-0.00030704262
55	0xb89d883e	-7.5117205e-05
56	0xbcff4e31	-0.031165214
57	0xbd703712	-0.05864627
58	0xbddd1792	-0.10795511
59	0xbb6864b0	-0.0035460405
60	0xbd90ae76	-0.07064526
61	0xbc2e1cff	-0.01062703
62	0xb9ec6be0	-0.000450938
63	0xbd21f5c5	-0.039541025
64	0xbd2eee12	-0.04270751
65	0xbd9295cc	-0.07157478
66	0xbe8748f2	-0.2642284
67	0xbdd357c4	-0.10319474
68	0xbc15e2ef	-0.0091483435
69	0xbd87d637	-0.06632655
70	0xbcd908cc	-0.026493452
71	0xba19114a	-0.0005839063
72	0xba88315b	-0.0010390686
73	0xbb6731bf	-0.0035277454
74	0xbd3a2b97	-0.045451727
75	0xb8ab5384	-8.1694714e-05
76	0xbd3702c0	-0.044680357
77	0xb98a6ea9	-0.0002640386
78	0xbd44c03f	-0.048034903
79	0xbd3e81e0	-0.046510577
80	0xbbae7c44	-0.005324872
81	0xbd20e612	-0.039281912
82	0xb96eaea9	-0.00022762515
83	0xba86511b	-0.001024756
84	0xbc218b05	-0.009859805
85	0xb91e2a04	-0.00015083706
86	0xb9a0f763	-0.00030701896
87	0xb89d8958	-7.511926e-05
88	0xbcff51fe	-0.031167027
89	0xbd703a87	-0.058649566
90	0xbddd19c1	-0.10795928
91	0xbb686b9e	-0.0035464535
92	0xbd90a9ab	-0.070636116
93	0xbc2e1f0b	-0.010627518
94	0xb9ec6f38	-0.00045096292
95	0xbd21f5fc	-0.03954123
96	0xbd2ef6e8	-0.042715937
97	0xbd929ba8	-0.07158595
98	0xbe87272a	-0.26397067
99	0xbdd3491a	-0.103166774
100	0xbc15ec0e	-0.009150518
101	0xbd87dc0b	-0.06633767
102	0xbcd9133e	-0.026498433
103	0xba190f7b	-0.00058387936
104	0xba87c949	-0.001035967
105	0xbb6740c0	-0.0035286397
106	0xbd3a35cc	-0.04546146
107	0xb8ab5a9f	-8.170795e-05
108	0xbd3710f7	-0.044693913
109	0xb98a8277	-0.00026418615
110	0xbd44cca1	-0.04804671
111	0xbd3e8c4c	-0.046520516
112	0xbbae6aba	-0.0053227814
113	0xbd20f0a0	-0.039291978
114	0xb96ebcd7	-0.00022767797
115	0xba865c01	-0.0010250808
116	0xbc218a9b	-0.009859706
117	0xb91e3428	-0.00015087484
118	0xb9a0e69e	-0.000306894
119	0xb89d867c	-7.511393e-05
120	0xbcff5d70	-0.031172484
121	0xbd704649	-0.05866078
122	0xbddd2363	-0.10797765
123	0xbb687774	-0.003547159
124	0xbd908bb0	-0.07057893
125	0xbc2e26e8	-0.010629393
126	0xb9ec4cc0	-0.0004507061
127	0xbd21eecb	-0.03953437
128	0xbd2f048f	-0.042728957
129	0xbd92a809	-0.071609564
130	0xbe86e946	-0.26349849
131	0xbdd33717	-0.10313242
132	0xbc15fd30	-0.009154603
133	0xbd87e8a8	-0.066361725
134	0xbcd94855	-0.026523748
135	0xba18feaa	-0.0005836288
136	0xba872329	-0.0010310161
137	0xbb6759bc	-0.0035301289
138	0xbd3a4848	-0.04547909
139	0xb8ab53ee	-8.1695485e-05
140	0xbd371a7c	-0.04470299
141	0xb98aa19c	-0.0002644182
142	0xbd44d0cd	-0.04805069
143	0xbd3e8e81	-0.04652262
144	0xbbae63ed	-0.0053219707
145	0xbd20f733	-0.039298248
146	0xb96e1732	-0.0002270609
147	0xba866e7f	-0.0010256319
148	0xbc2184cb	-0.0098583205
149	0xb91e3ab2	-0.0001508992
150	0xb9a0dced	-0.0003068218
151	0xb89d337f	-7.495935e-05
152	0xbcff7056	-0.031181496
153	0xbd705de7	-0.058683302
154	0xbddd355f	-0.10801195
155	0xbb68a80f	-0.0035500561
156	0xbd905a41	-0.070484646
157	0xbc2e3527	-0.01063279
158	0xb9ec4fd4	-0.00045072904
159	0xbd21da45	-0.0395148
160	0xbd2f1798	-0.04274711
161	0xbd92b4cb	-0.0716339
162	0xbe86a845	-0.26300254
163	0xbdd2eff0	-0.10299671
164	0xbc160d50	-0.009158447
165	0xbd87f6ab	-0.06638845
166	0xbcd99c07	-0.026563657
167	0xba189cf2	-0.00058217265
168	0xba86f481	-0.0010296257
169	0xbb67703d	-0.0035314702
170	0xbd3a5be0	-0.045497775
171	0xb8ab4236	-8.166248e-05
172	0xbd372dfb	-0.044721585
173	0xb98aa989	-0.00026447725
174	0xbd44e957	-0.048074093
175	0xbd3e8c5a	-0.04652057
176	0xbbae6ac1	-0.0053227847
177	0xbd20fc41	-0.039303068
178	0xb96e3027	-0.00022715387
179	0xba86842d	-0.001026278
180	0xbc2177d2	-0.009855228
181	0xb91e4819	-0.00015094913
182	0xb9a0c58d	-0.00030664765
183	0xb89d3c50	-7.4975775e-05
184	0xbcff88c3	-0.031193143
185	0xbd70766b	-0.058706682
186	0xbddd4900	-0.10804939
187	0xbb68d421	-0.003552683
188	0xbd902482	-0.07038213
189	0xbc2e4416	-0.01063635
190	0xb9ec7d97	-0.00045107
191	0xbd21be11	-0.039487902
192	0xbd2f3eb9	-0.042784426
193	0xbd92d3a2	-0.07169272
194	0xbe8608f8	-0.26178718
195	0xbdd1ec39	-0.10250134
196	0xbc163958	-0.009168945
197	0xbd88192c	-0.06645426
198	0xbcd9f635	-0.026606658
199	0xba182983	-0.00058045256
200	0xba872a22	-0.0010312239
201	0xbb67b198	-0.0035353657
202	0xbd3a8bf8	-0.04554364
203	0xb8ab4ff7	-8.16881e-05
204	0xbd375486	-0.044758342
205	0xb98ae5a2	-0.000264925
206	0xbd452bc7	-0.048137452
207	0xbd3e7b93	-0.04650457
208	0xbbae47fb	-0.0053186393
209	0xbd210384	-0.039309993
210	0xb96e57a0	-0.00022730092
211	0xba86b96b	-0.0010278648
212	0xbc212f26	-0.009837901
213	0xb91e6b04	-0.0001510792
214	0xb9a0a75e	-0.00030642276
215	0xb89ce51d	-7.481335e-05
216	0xbcffcbcc	-0.031225108
217	0xbd70b200	-0.058763504
218	0xbddd7ec7	-0.108151965
219	0xbb694b7e	-0.0035597975
220	0xbd8f91d6	-0.07010238
221	0xbc2e6935	-0.0106452005
222	0xb9ec463d	-0.0004506576
223	0xbd2141bd	-0.039369334
224	0xbd2f88b4	-0.04285498
225	0xbd9339ac	-0.071887344
226	0xbe840e7e	-0.25792307
227	0xbdcc604a	-0.09979303
228	0xbc16c373	-0.009201872
229	0xbd888a26	-0.06666975
230	0xbcdb3fec	-0.026763879
231	0xba179596	-0.0005782483
232	0xba8672de	-0.0010257622
233	0xbb686f24	-0.0035466636
234	0xbd3b2b19	-0.045695398
235	0xb8a9288f	-8.0661026e-05
236	0xbd37529e	-0.044756524
237	0xb98bcdc2	-0.00026665448
238	0xbd4607f5	-0.048347432
239	0xbd3d0c69	-0.046154413
240	0xbbae2fb2	-0.0053157443
241	0xbd1f9e6d	-0.038969446
242	0xb96f1271	-0.00022799686
243	0xba8763a7	-0.0010329381
244	0xbc1fc4d8	-0.009751521
245	0xb91d3d7f	-0.00014995596
246	0xb99eb828	-0.00030273315
247	0xb894da48	-7.097848e-05
248	0xbd0064a6	-0.031345986
249	0xbd7173e1	-0.0589484
250	0xbdde2f7e	-0.10848902
251	0xbb6aca6f	-0.0035826226
252	0xbd8dc1cc	-0.069217294
253	0xbc2ee123	-0.010673794
254	0xb9ebc28a	-0.00044967636
255	0xbd1f8ff1	-0.038955633

linear_classifier.0.bias f4 [784]
0	0xbde27bf2	-0.11058797
1	0xbde279fa	-0.110584214
2	0xbde27099	-0.110566325
3	0xbde255e0	-0.110515356
4	0xbde21d38	-0.11040729
5	0xbde1e3d3	-0.11029782
6	0xbde15375	-0.11002246
7	0xbddf3cfa	-0.10900302
8	0xbdd9f911	-0.10643209
9	0xbdcb6762	-0.09931828
10	0xbda97670	-0.08274543
11	0xbd9241cd	-0.07141457
12	0xbd874f3d	-0.066069104
13	0xbd88e8e7	-0.066850476
14	0xbd89ca32	-0.06728019
15	0xbd83e104	-0.06439403
16	0xbd88ef4f	-0.066862695
17	0xbd9bdb7a	-0.07610221
18	0xbdb5832d	-0.088629104
19	0xbdd1eb28	-0.102499306
20	0xbddc384f	-0.107529275
21	0xbddf73b5	-0.10910741
22	0xbde0a909	-0.10969741
23	0xbde12bc3	-0.10994675
24	0xbde1bda8	-0.11022502
25	0xbde20f12	-0.11038031
26	0xbde25150	-0.110506654
27	0xbde2752c	-0.11057505
28	0xbde278e4	-0.11058214
29	0xbde271e9	-0.11056883
30	0xbde254a4	-0.110513
31	0xbde1f384	-0.11032775
32	0xbde15c31	-0.11003912
33	0xbddf911f	-0.109163515
34	0xbdd8030a	-0.10547455
35	0xbdc83cb1	-0.09777201
36	0xbdaf61be	-0.08563565
37	0xbd881d0d	-0.06646166
38	0xbd267354	-0.04063733
39	0xbcb4a094	-0.022049226
40	0xbc31096d	-0.01080547
41	0xbc4ab014	-0.012371082
42	0xbc6dbf43	-0.014510932
43	0xbc1a55da	-0.009419883
44	0xbc550259	-0.013001048
45	0xbcf792fd	-0.030221457
46	0xbd4500c6	-0.04809644
47	0xbd96e293	-0.07367434
48	0xbdb95c2e	-0.09050785
49	0xbdcdc7cb	-0.10047873
50	0xbdd8d621	-0.10587717
51	0xbddccd80	-0.107813835
52	0xbddec83d	-0.10878036
53	0xbde06b5f	-0.109579794
54	0xbde1abcd	-0.110190965
55	0xbde25645	-0.11051611
56	0xbde26f66	-0.11056404
57	0xbde25949	-0.11052186
58	0xbde213ff	-0.1103897
59	0xbde16cbb	-0.11007067
60	0xbddf7e8d	-0.109128095
61	0xbdd4defd	-0.10394094
62	0xbdbf9e4c	-0.093563646
63	0xbdab3bc7	-0.08361011
64	0xbd8fed27	-0.07027655
65	0xbd4a7d42	-0.04943586
66	0xbce0e31f	-0.02745205
67	0xbca8eb98	-0.020620152
68	0xbc8c1c08	-0.01710321
69	0xbc844c1e	-0.016149577
70	0xbc844f6b	-0.01615115
71	0xbc72c9c9	-0.014818617
72	0xbc8d6abe	-0.017262813
73	0xbcae11af	-0.021248667
74	0xbd01797d	-0.03161
75	0xbd637e92	-0.05554063
76	0xbd97c122	-0.07409884
77	0xbdae7210	-0.085178494
78	0xbdc43886	-0.095810935
79	0xbdd45fd5	-0.10369841
80	0xbdda58c4	-0.10661462
81	0xbdddedd3	-0.10836377
82	0xbde09423	-0.10965755
83	0xbde2196e	-0.110400066
84	0xbde26266	-0.11053924
85	0xbde2236c	-0.110419124
86	0xbde1a719	-0.110181995
87	0xbde067f3	-0.10957327
88	0xbdd9f9de	-0.106433615
89	0xbdc53945	-0.09630064
90	0xbdabd4e5	-0.08390216
91	0xbd9166ea	-0.070997074
92	0xbd66ea44	-0.056375757
93	0xbd193b35	-0.03740998
94	0xbcb853d0	-0.022500902
95	0xbca0fa40	-0.019650578
96	0xbc91f8e7	-0.017818881
97	0xbc8b80f0	-0.017029256
98	0xbc840895	-0.016117373
99	0xbc7cde6b	-0.015433888
100	0xbc819639	-0.015818702
101	0xbc8dc167	-0.017304135
102	0xbcaecb57	-0.021337194
103	0xbd1f9540	-0.038960695
104	0xbd6d4f7f	-0.05793714
105	0xbd940b9a	-0.07228775
106	0xbdadc6b5	-0.08485166
107	0xbdc5f5e7	-0.09666043
108	0xbdd3b4ad	-0.103371955
109	0xbdda4827	-0.10658293
110	0xbddeca93	-0.10878482
111	0xbde1a96d	-0.110186435
112	0xbde24e13	-0.11050048
113	0xbde1b466	-0.110207364
114	0xbde0c93d	-0.10975883
115	0xbdde172e	-0.10844265
116	0xbdd1a7e7	-0.10237103
117	0xbdb6c46d	-0.08924184
118	0xbd95ff09	-0.07324035
119	0xbd798b40	-0.060923815
120	0xbd4aaa05	-0.04947855
121	0xbd068df9	-0.03285024
122	0xbcaaa03a	-0.020828355
123	0xbca0239b	-0.019548228
124	0xbc94e86b	-0.018177232
125	0xbc885cfe	-0.016645905
126	0xbc6f7633	-0.014615583
127	0xbc5b4660	-0.013383478
128	0xbc54af2b	-0.012981216
129	0xbc6351be	-0.013874469
130	0xbc88f4b5	-0.016718248
131	0xbcf592c8	-0.029977217
132	0xbd3f409e	-0.046692483
133	0xbd71ac8c	-0.059002444
134	0xbd971e96	-0.07378881
135	0xbdb5dbf2	-0.08879842
136	0xbdc9e238	-0.09857601
137	0xbdd4a5e4	-0.103832036
138	0xbddbc930	-0.10731733
139	0xbde100ba	-0.10986467
140	0xbde2102c	-0.11038241
141	0xbde0d2ac	-0.109776825
142	0xbddf0e91	-0.1089145
143	0xbdda398b	-0.10655507
144	0xbdc898ad	-0.097947456
145	0xbda76e20	-0.081753016
146	0xbd867b32	-0.065664664
147	0xbd61d6a6	-0.055136345
148	0xbd36d991	-0.04464108
149	0xbcec42ef	-0.02884051
150	0xbc9eaa02	-0.019368175
151	0xbc9a529d	-0.018838221
152	0xbc947945	-0.018124232
153	0xbc7fea3c	-0.015619811
154	0xbc4bc7e9	-0.012437799
155	0xbc30a476	-0.010781398
156	0xbc191a38	-0.00934463
157	0xbc14a6cf	-0.009072973
158	0xbc3b7f23	-0.011443886
159	0xbcb50b3c	-0.022100084
160	0xbd1c8e71	-0.03822178
161	0xbd49da77	-0.04928061
162	0xbd80da48	-0.06291634
163	0xbda3c1d8	-0.07995957
164	0xbdbc87f6	-0.0920562
165	0xbdcb5e71	-0.09930123
166	0xbdd6c612	-0.10486998
167	0xbde018cb	-0.10942229
168	0xbde1c009	-0.11022956
169	0xbddfadfa	-0.10921855
170	0xbddcce73	-0.107815646
171	0xbdd51136	-0.10403673
172	0xbdbf7196	-0.09347837
173	0xbd9ad079	-0.07559294
174	0xbd765814	-0.06014259
175	0xbd4d25fc	-0.050085053
176	0xbd28fbaf	-0.04125565
177	0xbcdc7db0	-0.026915401
178	0xbc99cf41	-0.018775584
179	0xbc910cf9	-0.017706381
180	0xbc8a30ce	-0.016868975
181	0xbc5eece6	-0.013606286
182	0xbc1c557f	-0.009541868
183	0xbbd8167a	-0.0065944763
184	0xbb8f2a2f	-0.0043690423
185	0xbb7e5066	-0.0038805245
186	0xbbdeb495	-0.0067964294
187	0xbc825604	-0.015910156
188	0xbcfb0c9f	-0.030645667
189	0xbd25fe2f	-0.04052561
190	0xbd5b0da0	-0.05347979
191	0xbd927769	-0.07151682
192	0xbdae5f08	-0.085142195
193	0xbdbfc5c2	-0.09363891
194	0xbdd13383	-0.10214903
195	0xbddefd68	-0.10888177
196	0xbde143f4	-0.10999289
197	0xbdde309e	-0.10849117
198	0xbdda3067	-0.10653763
199	0xbdcff624	-0.101543695
200	0xbdb774a5	-0.08957795
201	0xbd90a1a3	-0.0706208
202	0xbd64015a	-0.05566535
203	0xbd3af9ab	-0.04564826
204	0xbd1d9eca	-0.03848151
205	0xbcd7d10e	-0.026344802
206	0xbc93f02a	-0.018058855
207	0xbc84e137	-0.016220672
208	0xbc7856a2	-0.015157374
209	0xbc4104fd	-0.011780974
210	0xbbfdc614	-0.00774456
211	0xbad4cc61	-0.0016235226
212	0x3ab7de32	0.0014028011
213	0x3ad9001a	0.0016555816
214	0xbb1f327b	-0.0024291563
215	0xbc2e4f9a	-0.010639096
216	0xbcbf4d3d	-0.02335226
217	0xbd0515d2	-0.032491513
218	0xbd38dd13	-0.045132708
219	0xbd8222c7	-0.063542895
220	0xbda05578	-0.07828802
221	0xbdb39c71	-0.08770073
222	0xbdcb8771	-0.09937943
223	0xbdde0360	-0.108404875
224	0xbde0e13c	-0.1098046
225	0xbddca831	-0.107742675
226	0xbdd780ec	-0.10522637
227	0xbdcb7d00	-0.09935951
228	0xbdb15b80	-0.0866003
229	0xbd88e07a	-0.066834405
230	0xbd57b90e	-0.052666716
231	0xbd2b9f8d	-0.041900206
232	0xbd12525f	-0.035723086
233	0xbcd40367	-0.025880529
234	0xbc8c78f4	-0.017147519
235	0xbc6f8ed6	-0.014621457
236	0xbc5150ae	-0.012775583
237	0xbc1de8b4	-0.009638
238	0xbc03aab2	-0.008036302
239	0x3b99ff81	0.004699648
240	0x3c0e56d3	0.008687693
241	0x3c0c9a81	0.0085817585
242	0x3aecb76e	0.0018060037
243	0xbbd1bb8a	-0.00640053
244	0xbc84d5ae	-0.016215172
245	0xbccc0abd	-0.024907464
246	0xbd18bbc1	-0.03728843
247	0xbd63ef48	-0.05564812
248	0xbd924a26	-0.07143049
249	0xbda6e121	-0.08148409
250	0xbdc4b267	-0.0960434
251	0xbddcb834	-0.107773215
252	0xbde083eb	-0.10962661
253	0xbddb114a	-0.10696657
254	0xbdd584f4	-0.104257494
255	0xbdc82ffc	-0.09774777
